mlp_regressor.pth (torch, 931357 bytes, 31 tensors)

layer1.0.weight f4 [256, 52]
000000 d0 30 44 bd dd 9c 36 bd 2f e3 c0 bc 28 81 b3 3d
       -0.047898114 -0.04458319 -0.02354583 0.08764869
000010 f8 25 1d bd ca fe 1d 3d 34 54 6a bd ca cb 86 3e
       -0.038366288 0.038573064 -0.05720921 0.26327354
000020 cd 07 82 bd 98 9a 57 bd c4 13 00 3c c5 ef c4 bd
       -0.06349144 -0.052637666 0.0078172125 -0.09616045
000030 89 07 98 3c 0d 75 67 3d c8 20 fa 3d c4 03 02 bd
       0.01855828 0.056508113 0.12213284 -0.031741872
000040 47 a5 c3 3c 1f 49 a9 bd c5 71 cc bd 44 bd 17 3e
       0.023882521 -0.082659 -0.09982637 0.14818293
000050 3a 68 b4 bd 08 40 72 3c d8 c8 a3 3d 6a 55 77 bd
       -0.08808942 0.014785774 0.07997292 -0.06038419
000060 6c 01 ce 3c 0a d2 36 bd ae 0f 90 3c 0a 47 c3 3c
       0.025147162 -0.044633903 0.017585602 0.023837585
000070 5b 14 3a bd 27 3c e2 3c fe 85 ef 3c 5a 4c a2 3d
       -0.04542957 0.027616573 0.029238697 0.07924719
000080 53 68 07 3e 08 91 e6 3d c8 70 e2 bd f5 77 1a bd
       0.1322339 0.11258131 -0.110566676 -0.037712056
000090 2d c8 82 bb 6e 40 bd bd ff 8c 71 bd a0 99 d6 bd
       -0.003991148 -0.092408046 -0.058972355 -0.104785204
0000a0 e3 7e 1f be 2d 05 b5 bc b2 31 30 3e 0b 87 78 bc
       -0.15575747 -0.022097195 0.17206457 -0.0151689155
0000b0 b3 e6 42 bc a9 77 cf bd a2 89 c0 bd 45 2b 6e 3d
       -0.011895823 -0.10130245 -0.094012514 0.058146734
0000c0 35 d7 fa bc 8a 9a 94 bc a0 78 49 3e 9d 5b 88 bd
       -0.030620197 -0.018140096 0.19674921 -0.06658099
0000d0 4d 5a 2e bd 74 8a f7 bd 18 d4 06 bd 7f e1 7d bd
       -0.042566586 -0.12086955 -0.032917112 -0.061982628
0000e0 a8 78 b2 bd b1 51 3e bd a4 a5 c7 bd 4b c3 e6 3d
       -0.087144196 -0.046464626 -0.0974839 0.11267718
0000f0 6d be de bd e8 28 70 3c 14 fe 86 b9 0b f1 80 be
       -0.108761646 0.01465819 -0.00025747775 -0.251839
000100 42 56 be 3d 78 3d ad 3d 3d 96 e8 3d 7c 33 0f 3e
       0.09293796 0.0845899 0.11356781 0.13984483
000110 2f 10 3c bd 03 e0 ef bc 02 c4 67 3c cc 70 8f bd
       -0.04591387 -0.029281622 0.014145853 -0.07003936
000120 bf 0d 0d bd 14 eb ae 3d e7 3d a4 3d c4 0b b4 3b
       -0.034436937 0.08540931 0.080196194 0.0054945666
000130 e1 ad 8e 3c f6 60 0c bd 4d f6 f3 bd 2f 00 c1 bd
       0.017416896 -0.034272157 -0.119122125 -0.09423863
000140 b3 b7 fd bc bd 8c 58 bd 62 40 14 bc 6d 6b 78 bc
       -0.030971384 -0.052868593 -0.009048553 -0.015162331
000150 e1 47 86 bd 03 2c 12 3e f7 e3 25 bc 5b 78 87 3c
       -0.065566786 0.14274602 -0.010125152 0.016536882
000160 df 31 ac 3d c5 29 26 3d 3c e7 b4 3d 04 ff be bb
       0.0840795 0.04056718 0.08833167 -0.00582874
000170 6c 21 95 3d d9 3d f4 bd c8 1c 81 bd 90 14 95 bb
       0.07281765 -0.11925859 -0.06304318 -0.0045495704
000180 a3 22 e9 bc 01 3e 7e bd 8c 00 74 bd db 86 ef bc
       -0.028458899 -0.06207085 -0.059570834 -0.029239109
000190 b7 78 44 be 76 00 b9 bd 91 b7 ba 3c 65 d8 2c 3e
       -0.19186674 -0.09033291 0.02279261 0.16879423
0001a0 69 7a b4 bc 7c 48 aa bb a1 7b 1d bd 1d 29 e4 3d
       -0.022031026 -0.005196629 -0.03844798 0.11140654
0001b0 95 80 21 3d 5a a2 d0 bd 0e 44 52 bc d9 ce 16 bd
       0.039429266 -0.10187216 -0.012833608 -0.03681836
0001c0 3e ee 02 3e 51 3d ed 3d 7b b9 e0 3d c9 92 20 3e
       0.12786195 0.11583961 0.109728776 0.15680994
0001d0 47 ff 02 3e aa 8d 01 be 96 71 b3 3d 18 62 15 3d
       0.12792693 -0.12651697 0.08761899 0.036470503
0001e0 1d 5d 38 3e e1 5c 01 3d 83 73 9d 3c 6e d3 40 bc
       0.1800427 0.031582717 0.01922012 -0.011769159
0001f0 d7 c1 3d 3d 5b ba 30 3d 4c 09 92 bd a9 61 33 3d
       0.04632744 0.043146472 -0.071306795 0.043794308
000200 3c 18 b0 bc 26 1f c3 3d e2 fe a8 bd a4 64 84 3c
       -0.02149593 0.095274255 -0.0825174 0.01616127
000210 64 db 0b 3e f6 00 42 bc 2f 39 ff bc 88 c6 30 be
       0.1365791 -0.011841049 -0.031155197 -0.17263234
000220 91 32 0c 3e 2f 58 72 bd f8 e9 cf 3d bc b6 5a 3b
       0.13691165 -0.05916613 0.10152048 0.0033373078
000230 a1 a1 67 3c 38 58 5a bd 26 07 52 bc e4 c1 58 bc
       0.014137656 -0.05330679 -0.012819087 -0.013229821
000240 84 57 c2 bc 53 b0 df bc d2 77 bb 3b 38 20 44 bc
       -0.023723371 -0.027305758 0.005721071 -0.011970572
000250 39 18 b9 bb a5 c2 a9 bd 92 65 d5 3b 0d 13 27 bd
       -0.0056486395 -0.082890786 0.0065123523 -0.040789653
000260 10 96 cc bb 76 33 76 3d 38 b7 50 bd 06 fd 19 3e
       -0.006243475 0.06010767 -0.05095598 0.15037927
000270 2d 83 2c bc 77 20 0b be 6d 1f 51 bd 0c 85 16 3c
       -0.010529322 -0.13586603 -0.05105536 0.009186994
000280 b6 e1 96 3d 1f 0a f4 3d 5d 43 ec bc fc bc 12 bc
       0.0736727 0.11915993 -0.028840715 -0.00895619
000290 51 df 86 bc e6 8c ab bc 7d 1e 23 3e 2a d7 10 3d
       -0.016463907 -0.020941209 0.15929599 0.035361446
0002a0 cd e7 00 bd 98 80 48 bb bf 51 4e 3d 0e e0 15 bd
       -0.031471062 -0.0030594226 0.050370928 -0.03659063
0002b0 c1 2b 66 bd 23 2b 4e 3d 0a 89 c6 3d 83 1a 01 3e
       -0.05619407 0.050334107 0.09694107 0.1260777
0002c0 9a fd 1f 3d b8 1d a1 3c f7 0b 47 bd 5f 40 e6 3c
       0.039060213 0.019667491 -0.048595395 0.028106866
0002d0 67 67 92 bd b9 28 91 bd 12 c5 0e 3e 65 88 4c 3e
       -0.07148629 -0.07087845 0.13942364 0.19973905
0002e0 81 54 b6 3c 52 56 3e 3c 0f 88 10 bd f9 8d 47 3e
       0.022257091 0.01161726 -0.035286006 0.19487752
0002f0 37 6a e0 3d 51 fc 4b 3e 0d 5f 98 3d 25 a2 99 bd
       0.10957759 0.1992047 0.074400045 -0.0750163
000300 18 bb 6f 3c 9f 9d 35 3d 44 33 bc 3d 2a 6a 10 3d
       0.014632009 0.044339772 0.09189466 0.035257496
000310 e6 e3 87 3d a7 b4 00 bd 6d 90 91 3d bc f7 21 3d
       0.06635265 -0.031422284 0.07107625 0.0395429
000320 97 ac 93 bc a8 dc d2 bb fa 67 36 bd 0a ab d1 bc
       -0.018026633 -0.0064349957 -0.044532754 -0.025594253
000330 08 c1 03 bc 8d c1 f4 3b 72 a8 a8 bd 2d 1d c9 bd
       -0.008041628 0.007469362 -0.082352534 -0.09820018
000340 fe 0a 12 3d fb 82 20 be c5 50 02 3d 2c ad ac 3d
       0.035655014 -0.15674965 0.03181531 0.084314674
000350 29 b9 f1 3c d3 be 3d be 5b aa 61 3d ed 69 e6 bd
       0.029507237 -0.18529825 0.055094104 -0.112506725
000360 62 a9 c3 3d fb cd 69 3c 18 ff 08 3e 5c 24 72 3e
       0.095537916 0.014270301 0.1337856 0.23646683
000370 9f 73 dd bb 20 86 70 bd f5 ee 12 3c cc 90 25 3c
       -0.006758168 -0.05872166 0.008968105 0.010105323
000380 17 8f cb 3d 47 b0 d2 bc 0c 44 0f be c1 83 07 bd
       0.099394016 -0.025718821 -0.13990802 -0.033084635
000390 00 4c cc 3d a9 23 7e 3d 15 96 27 be e4 ef af 3a
       0.09975433 0.062045727 -0.16365846 0.0013422933
0003a0 f3 2c 10 bc cf 28 6c 3d f6 73 63 bc 8b ce 38 bd
       -0.008799779 0.057656106 -0.013882628 -0.04511885
0003b0 a6 1e de bd d1 24 17 3e 74 33 c3 bc 45 5d df bb
       -0.108456895 0.14760138 -0.023828246 -0.0068165385
0003c0 a9 9f 81 3d 47 36 c9 bd a4 31 32 be 40 43 1c 3d
       0.06329281 -0.09824806 -0.17401749 0.038150072
0003d0 d9 bf 04 bc 34 8a 0b bd 13 bf 90 3b d3 d1 02 bd
       -0.008102381 -0.034067348 0.004417309 -0.031938385
0003e0 78 0e 73 bd ab f0 3f bd d3 36 23 bd 64 84 2d be
       -0.05933997 -0.04686038 -0.039847206 -0.16945034
0003f0 a0 84 63 3e 22 a5 a6 bc 43 e4 15 3d f7 02 51 bd
       0.22218561 -0.020342413 0.03659464 -0.051028218

layer1.0.bias f4 [256]
000000 ca 98 6c 3d 14 83 17 3c 6d 51 a1 bd 8d da c5 bc
       0.0577629 0.00924756 -0.07876859 -0.024152065
000010 95 85 8b 3c a5 79 99 bb e3 2b 9e bb d8 c3 ab bd
       0.01703147 -0.0046836906 -0.004827009 -0.083869636
000020 4a f5 18 bd 6e 05 0a bb 2d 0c 0f 3d b5 fb b3 bc
       -0.0373433 -0.0021060365 0.03492372 -0.02197061
000030 a5 6f eb b9 2a 35 6b bd 64 e7 20 bd 27 32 38 bd
       -0.00044905875 -0.057423748 -0.03928317 -0.044969704
000040 ad c3 5c bd 78 3c aa ba 2e b7 91 bc 45 f0 08 3b
       -0.05389755 -0.0012987992 -0.017787542 0.0020895165
000050 12 29 51 bc 69 77 b1 bc 95 fd 46 bb e3 d3 03 bc
       -0.01276614 -0.021663385 -0.003036355 -0.008046123
000060 bf 32 20 bd 5d b6 86 3d 39 cd d5 bc 6e 4e f1 3b
       -0.039110895 0.06577752 -0.026098834 0.007364086
000070 06 bc a4 bd 39 4b de bd 6c 0e 37 bd 21 58 f1 3c
       -0.08043675 -0.10854191 -0.04469149 0.029460968
000080 d0 47 9a bd a3 6a 05 3a 75 04 01 bd b0 20 ab 3c
       -0.075332284 0.00050894375 -0.03149839 0.02088961
000090 62 f5 53 bd 74 b4 8e bd 0d c7 38 bc 85 ff 15 bd
       -0.051747687 -0.069680125 -0.011277926 -0.036620636
0000a0 7d 90 ac 3c f9 2f 9c bd a1 ff 9d 3c b7 67 0e 3c
       0.021064991 -0.076263376 0.019286932 0.00869172
0000b0 d4 91 0a 3d 4e f7 b0 3b 96 ca 44 bd 9a 7b f9 3c
       0.03383048 0.0054005748 -0.048044764 0.030454446
0000c0 7a fc 00 be 73 ca f5 bc 7f cb 83 bc cb d1 7f bc
       -0.12596312 -0.030003762 -0.016088245 -0.015613983
0000d0 28 99 d5 bd 80 3f 56 3c a3 f7 a6 bc 40 11 2b bb
       -0.10429603 0.013076663 -0.020381754 -0.002610281
0000e0 b9 35 c3 bb ad fb ad 3b 27 e1 85 bc e6 4c 42 3d
       -0.005957332 0.005309543 -0.016342713 0.047436617
0000f0 61 3c 22 bc 2c 99 29 3d 57 94 04 3d c1 55 a6 bd
       -0.009902091 0.04140584 0.03236803 -0.08121825
000100 59 07 2a 3d 53 bb 65 bb 79 56 b4 3c 49 cf 4b bd
       0.041510914 -0.003505428 0.02201389 -0.04975823
000110 db 15 c4 3b 43 f5 8a bd e0 00 8e 3c b8 18 06 3c
       0.0059840507 -0.06785061 0.017334402 0.008184604
000120 4d 79 ba 3a 44 74 02 bb ce c8 20 bd aa 1d a4 3c
       0.0014226824 -0.0019905725 -0.039254002 0.020033676
000130 60 b1 7b bc 79 73 01 bd eb f3 0b bd 4e 5b 1c 3d
       -0.015362114 -0.031604264 -0.034168165 0.038173012
000140 17 79 38 bd df 9a 18 3c 2a 03 41 bd d5 62 91 3c
       -0.045037355 0.009314268 -0.047122158 0.017747322
000150 9d 07 0d bd 3b 64 50 bd 41 00 d8 bb 12 cb b5 3d
       -0.03443109 -0.050876837 -0.006591827 0.08876623
000160 d5 50 b6 bc d9 4a fa 3b e1 cf 5b 3c 82 cb 84 bd
       -0.02225534 0.007638317 0.013416261 -0.064841285
000170 ef 54 c0 38 c5 63 c7 3c 57 90 5a bd cf 5f a4 3c
       9.1710936e-05 0.024339566 -0.05336031 0.020065216
000180 3d ee ac 3c a1 93 b8 3b 0a 49 c4 bc 29 16 80 bc
       0.021109695 0.005632833 -0.023960609 -0.015635567
000190 e2 cd 5c bc 4f fc f5 bd 8f f7 0e bd 3e b9 c5 bd
       -0.013476821 -0.12011015 -0.03490406 -0.09654473
0001a0 80 d9 68 3c 3a 4d 5b 3d f5 0e ae 3b 45 d8 e4 bd
       0.014212012 0.053540446 0.0053118416 -0.11174063
0001b0 bd fc 48 bc 6b cf 18 3d 7d 70 70 3c 93 84 7d 3a
       -0.012267289 0.037307184 0.014675257 0.0009670939
0001c0 a6 6b 33 bb 45 51 47 bd 92 a5 0f bd 69 84 3b bd
       -0.0027377396 -0.04866149 -0.03507001 -0.045780573
0001d0 07 8a 13 bd 1d 1a b5 bc bf 80 8f 3c b5 9d 90 bd
       -0.036020305 -0.022107178 0.017517446 -0.0706133
0001e0 01 cf d0 bd 3f 6a 13 bc ac 98 01 ba af 90 8c 3c
       -0.10195733 -0.008997499 -0.00049437094 0.017158834
0001f0 a1 26 e0 bc 39 48 41 bd ca 46 e2 bc 35 bf 64 bd
       -0.02736217 -0.047188018 -0.027621645 -0.05584641
000200 38 eb 12 3d 19 d4 6c 3b 52 93 76 bc 85 40 ec 3b
       0.035868853 0.0036137162 -0.015049772 0.0072098398
000210 ea a8 55 bd 74 5c 90 bd 97 9c 49 3d 2c d9 3e bd
       -0.052163042 -0.07048884 0.0492216 -0.04659383
000220 50 b6 ee b9 19 a2 e9 bc e8 8a 50 bd e5 2d 5b bd
       -0.0004553073 -0.028519677 -0.05091372 -0.053510565
000230 80 fd 9b bd 92 e0 4e bd e7 4b 93 bd 85 ff a8 bd
       -0.07616711 -0.050507136 -0.071922116 -0.082518615
000240 1c bf c7 ba 40 bd 86 3c ed 6e 95 3d 51 65 74 bc
       -0.001523945 0.016447663 0.07296548 -0.014916734
000250 d1 4a 0e be 5e d4 06 3d 6c 1f de bc b7 0b 6c bd
       -0.13895728 0.032917373 -0.027114592 -0.05762836
000260 92 f6 34 bd 0b ae 2d 3d e3 63 51 bc e4 89 3b bd
       -0.04418046 0.04240231 -0.0127801625 -0.0457858
000270 7a be f3 bc 75 14 d4 bc 71 5b b2 3c cf f0 4a bd
       -0.029753912 -0.02588866 0.021772118 -0.04954606
000280 90 c0 17 bd 22 07 11 3c fc 4f ea bc 92 8e 28 bd
       -0.037048876 0.008851798 -0.028602593 -0.04115159
000290 e9 c0 b0 3b cd 74 66 bd 5d 7c 2a bd c3 45 b7 3c
       0.0053940904 -0.056263734 -0.04162251 0.022372132
0002a0 0c 0f d2 3b c5 f7 17 bc 8c d8 69 bd 2b 70 b2 bc
       0.006410485 -0.009275381 -0.05709128 -0.021782001
0002b0 54 35 aa bc 42 02 90 bc a6 ad a1 bb 86 6d ee bb
       -0.020777382 -0.017579202 -0.0049340306 -0.00727624
0002c0 f9 41 5a 3d 66 db c4 bc 6b e8 a9 bd 73 13 5e bd
       0.053285573 -0.024030399 -0.08296283 -0.054217767
0002d0 05 3f 6e bc f7 b3 6c bd a5 b7 e0 3d e9 0e 17 3c
       -0.014541392 -0.057788815 0.109725274 0.009219863
0002e0 e4 e6 8a 3d ae 88 3b bc 47 0a 2b bd 6c 43 56 bd
       0.0678232 -0.011446161 -0.041757848 -0.052310392
0002f0 fb d6 b0 bd fe 2d b8 bc a7 8b 4f 3d 16 d7 08 bd
       -0.08634754 -0.022482868 0.050670292 -0.033408247
000300 c0 be cc bc 9e c2 62 bd 47 d6 7a bc 83 eb 76 bd
       -0.0249933 -0.055361383 -0.015309877 -0.060283195
000310 26 15 3f bc 5d c0 ab bd 8f ee 9a bc 19 92 62 bd
       -0.011662757 -0.083863 -0.018912582 -0.05531511
000320 71 d9 99 3b 70 65 ad 3d f7 5d 8c bd 16 ba 46 3d
       0.0046951105 0.08466613 -0.0685386 0.04851731
000330 13 06 c0 bd 61 a4 e8 3c 2a fa 87 bb bf db 26 bd
       -0.093761586 0.028398694 -0.004149695 -0.04073691
000340 03 bd ff bc 03 2c 0a 3c 26 e8 e7 bc 6f 04 86 bd
       -0.031218057 0.008433345 -0.02830894 -0.065438144
000350 2c 57 86 bc 2b 7c 0b bd 64 5f ce bd 05 c2 34 bd
       -0.016398989 -0.034053963 -0.10076788 -0.044130344
000360 0d 18 a3 3d d6 61 bf bc db 5c a6 3c bf 47 d0 bc
       0.07963572 -0.023362081 0.020307949 -0.025424836
000370 30 01 fb bb 33 2b af 3d f2 da af 3c bf b4 cb bd
       -0.0076600537 0.085531615 0.021466706 -0.09946584
000380 85 f3 24 bd f0 49 24 bd e0 cb 26 3d 3e fd a0 3b
       -0.0402713 -0.040109575 0.040721774 0.0049130013
000390 29 6c de bc f1 ad 5c bb 03 a3 f0 bc 69 9f 0a bd
       -0.027151184 -0.0033673013 -0.029374605 -0.03384343
0003a0 89 98 a5 bd be 0d 59 be 10 b0 99 bd ba f1 57 3c
       -0.080857344 -0.21196648 -0.075042844 0.013180191
0003b0 e0 88 a8 3c 44 cd f8 3c f0 4b 73 bd c2 e3 aa bc
       0.02057308 0.030371316 -0.05939859 -0.020860557
0003c0 70 73 1e 3d 5f ad aa 3c a8 a4 a5 bc 73 d5 1f 3d
       0.03868431 0.020834623 -0.020220116 0.03902192
0003d0 cb 41 92 bc 96 47 b0 bc 08 b1 87 bd 1f 57 6e bd
       -0.017853638 -0.02151851 -0.06625563 -0.058188554
0003e0 52 99 45 bb 08 19 7d bd 37 08 97 bc f5 92 80 bd
       -0.00301512 -0.06179145 -0.018436534 -0.0627803
0003f0 a1 c6 a9 bd 22 0b 00 3d 82 cf 49 bd a7 4f ac bd
       -0.082898386 0.031260617 -0.04927016 -0.0841363

layer1.2.weight f4 [256]
000000 46 e1 77 3f 40 40 7e 3f 0b 06 75 3f a4 39 7a 3f
       0.96828115 0.9931679 0.95712346 0.977442
000010 3f b1 73 3f 1e fe 79 3f c0 19 75 3f 2b ac 79 3f
       0.9519233 0.9765338 0.95742416 0.9752833
000020 15 3f 75 3f 44 2a 6d 3f a1 15 70 3f 1f c5 6d 3f
       0.9579938 0.9264262 0.93783003 0.9287891
000030 c1 48 7e 3f 4a 3e 82 3f 05 4a 78 3f ca 94 84 3f
       0.99329764 1.0175259 0.96987945 1.0357907
000040 b9 d2 71 3f 35 2c 7c 3f 28 f9 74 3f 18 93 74 3f
       0.9446216 0.98504955 0.9569268 0.9553695
000050 d7 da 76 3f b9 50 72 3f 09 11 77 3f 0d 61 80 3f
       0.96427673 0.94654423 0.9651037 1.0029618
000060 f9 e2 73 3f 99 f4 6e 3f d8 d1 80 3f 8f cd 67 3f
       0.9526821 0.93341976 1.0064039 0.9054803
000070 e8 aa 6e 3f 26 79 79 3f f2 a3 81 3f be d7 72 3f
       0.9322953 0.9745048 1.0128157 0.94860446
000080 04 d1 82 3f 03 47 80 3f e8 41 82 3f 98 7d 7e 3f
       1.0220037 1.0021671 1.0176363 0.9941039
000090 58 ca 76 3f fd 45 66 3f 21 9d 70 3f cd e1 80 3f
       0.964025 0.89950544 0.9398976 1.0068909
0000a0 63 cf 7c 3f 99 3b 7d 3f a0 07 79 3f d7 bc 79 3f
       0.98753947 0.98919064 0.9727726 0.9755377
0000b0 e0 76 76 3f b4 c0 76 3f f7 b7 70 3f 83 7a 69 3f
       0.9627514 0.9638779 0.9403071 0.91202563
0000c0 15 cf 78 3f fb a4 72 3f bf 3d 76 3f 30 2e 7a 3f
       0.9719098 0.9478299 0.9618797 0.97726727
0000d0 b4 71 7e 3f d2 05 7f 3f aa e7 78 3f 48 a5 75 3f
       0.9939225 0.99618256 0.9722849 0.95955324
0000e0 f5 39 7d 3f d3 fb 70 3f f6 97 78 3f 89 a5 69 3f
       0.9891656 0.94134253 0.97106874 0.9126821
0000f0 8c 3d 72 3f 73 61 7d 3f f4 8c 81 3f 6d 6f 77 3f
       0.94625163 0.9897682 1.012114 0.966544
000100 5a 30 79 3f b8 9d 7a 3f 9a 7b 7a 3f ee a8 7c 3f
       0.97339404 0.9789691 0.9784485 0.98695266
000110 61 60 73 3f 2a 1e 82 3f 7a ba 78 3f d2 c2 7a 3f
       0.9506894 1.0165455 0.9715954 0.9795352
000120 76 05 7a 3f f8 c7 73 3f 50 2b 7b 3f 1d a1 76 3f
       0.9766458 0.95227003 0.98112965 0.9633959
000130 13 d2 78 3f 43 2f 7c 3f 26 69 71 3f 13 f5 79 3f
       0.9719555 0.98509616 0.9430107 0.9763958
000140 46 70 7e 3f 7e 5a 77 3f bd cd 78 3f 7a 6c 7f 3f
       0.99390066 0.96622455 0.9718893 0.997749
000150 b1 20 77 3f b6 e5 79 3f 81 cd 74 3f 46 8a 76 3f
       0.9653426 0.97616136 0.95626074 0.9630474
000160 39 ee 79 3f b1 c2 78 3f c6 7e 6c 3f e3 27 80 3f
       0.97629124 0.97172076 0.9238094 1.0012172
000170 1b 12 76 3f 11 ae 6e 3f 95 a6 72 3f a1 71 70 3f
       0.96121377 0.93234354 0.94785434 0.93923384
000180 53 04 72 3f 63 65 86 3f 01 ce 82 3f a5 fc 7e 3f
       0.9453785 1.0499691 1.0219117 0.99604255
000190 25 d0 78 3f 56 10 7e 3f 9e f0 7b 3f 63 c0 7b 3f
       0.97192603 0.99243677 0.9841403 0.98340434
0001a0 a2 a1 7f 3f c6 01 74 3f bf 88 74 3f c8 0c 7d 3f
       0.9985601 0.95315206 0.9552116 0.9884763
0001b0 1c d7 75 3f e5 2e 74 3f 45 c4 6c 3f 73 78 6f 3f
       0.96031356 0.95384055 0.92486984 0.93543166
0001c0 a7 ef 7d 3f 5c 5c 7d 3f c1 8a 71 3f 1a 18 79 3f
       0.99193805 0.98969054 0.94352347 0.973024
0001d0 2a c8 70 3f 99 6f 7d 3f eb 22 80 3f 9e c3 71 3f
       0.94055426 0.9899841 1.0010656 0.94439113
0001e0 df 5c 82 3f ff 3d 71 3f a0 06 7a 3f a4 7c 79 3f
       1.0184592 0.94235224 0.9766636 0.9745581
0001f0 41 4c 7f 3f 53 d9 73 3f 70 47 83 3f e0 ba 7a 3f
       0.9972573 0.95253485 1.0256176 0.979414
000200 ee 3e 6a 3f 59 6f 7c 3f 17 7f 7d 3f 5d 61 71 3f
       0.91502273 0.98607403 0.9902205 0.9428919
000210 5f e8 75 3f 15 f5 81 3f 8d c8 75 3f 74 1a 7e 3f
       0.96057695 1.0152918 0.9600914 0.99259114
000220 7f a0 70 3f 5f 49 73 3f e0 14 7d 3f 8a 1d 7f 3f
       0.939949 0.9503383 0.9885998 0.9965445
000230 ad 79 7d 3f bd 2e 7c 3f 55 e4 82 3f 73 55 7a 3f
       0.9901379 0.98508817 1.0225931 0.97786635
000240 db 96 71 3f 4f 11 78 3f 91 af 72 3f 9f 63 74 3f
       0.9437081 0.9690141 0.94799143 0.9546451
000250 6e 31 7f 3f c1 73 66 3f 9a 9c 70 3f 91 53 82 3f
       0.996848 0.90020376 0.93988955 1.0181752
000260 1f da 78 3f 55 1b 7d 3f 5e 04 7b 3f 30 95 72 3f
       0.97207826 0.9886983 0.9805354 0.9475889
000270 66 ba 77 3f 0f 7c 7e 3f c6 ac 63 3f c8 22 6d 3f
       0.96768796 0.9940805 0.88935506 0.92631197
000280 9c 67 70 3f ff fd 80 3f 82 d4 80 3f 11 3c 7d 3f
       0.93908095 1.0077513 1.0064852 0.9891978
000290 ce 46 7c 3f 6b 1a 81 3f 6c d9 84 3f 69 20 74 3f
       0.9854554 1.0086187 1.0378852 0.95361954
0002a0 dd ec 72 3f 35 69 70 3f 53 1a 7c 3f 32 bb 81 3f
       0.94892675 0.93910533 0.9847767 1.0135252
0002b0 51 05 76 3f e9 05 7f 3f 86 f5 71 3f 1b a8 81 3f
       0.9610186 0.99618393 0.94515264 1.0129427
0002c0 cf 74 76 3f 29 2d 77 3f 46 5c 7d 3f c8 09 7b 3f
       0.96271986 0.96553284 0.98968923 0.980618
0002d0 23 b9 80 3f 97 c8 82 3f bd 75 71 3f da 6e 6c 3f
       1.0056499 1.0217465 0.9432028 0.92356646
0002e0 67 39 75 3f a8 35 74 3f 61 60 71 3f aa 17 82 3f
       0.95790714 0.9539437 0.9428769 1.0163472
0002f0 6b b0 7d 3f f9 ba 6e 3f 37 f2 73 3f 92 34 80 3f
       0.9909732 0.9325405 0.95291466 1.0016043
000300 59 ad 7d 3f 90 4b 76 3f b9 eb 7d 3f 90 2a 7b 3f
       0.9909263 0.9620905 0.9918781 0.9811182
000310 84 8a 6e 3f 2b b0 75 3f f2 fc 67 3f e1 25 7c 3f
       0.9318011 0.95971936 0.9062034 0.984953
000320 44 7e 7c 3f 29 a0 82 3f fa e0 7e 3f 46 08 77 3f
       0.98630166 1.0205127 0.99562037 0.96497
000330 70 9c 76 3f d7 1a 71 3f 4a b5 78 3f 9d 21 6e 3f
       0.96332455 0.9418158 0.97151625 0.9302004
000340 ac f8 6f 3f a8 1f 6e 3f d0 20 7d 3f e0 f5 7b 3f
       0.9373882 0.93017054 0.9887819 0.9842205
000350 38 ff 76 3f 90 42 82 3f 64 81 72 3f dc 3d 81 3f
       0.9648318 1.0176563 0.94728684 1.0097003
000360 79 91 75 3f 1b 39 77 3f 20 c4 75 3f ad 57 73 3f
       0.959251 0.9657151 0.9600239 0.9505566
000370 70 8d 80 3f 79 80 7e 3f f5 c4 7c 3f 34 f2 72 3f
       1.0043163 0.99414784 0.9873803 0.9490082
000380 37 fb 7d 3f 5a c0 73 3f 5b 56 7a 3f 4f 01 84 3f
       0.9921145 0.9521538 0.9778802 1.0312899
000390 57 fc 6a 3f 9f 92 75 3f 60 06 78 3f b2 56 7d 3f
       0.9179129 0.9592685 0.9688473 0.9896041
0003a0 d7 6b 77 3f 85 27 87 3f 1b 1a 81 3f f1 ab 79 3f
       0.96648926 1.0558935 1.0086092 0.97527987
0003b0 31 b1 7d 3f a0 05 75 3f d9 21 80 3f 50 3b 7c 3f
       0.990985 0.9571171 1.001033 0.98528004
0003c0 e5 b5 79 3f 92 ac 7a 3f 07 63 7b 3f 9f 2b 76 3f
       0.97543174 0.9791957 0.9819798 0.9616031
0003d0 09 2c 7e 3f 4c 5c 77 3f 7d 08 82 3f 71 80 80 3f
       0.9928594 0.9662521 1.015884 1.0039197
0003e0 31 15 75 3f f6 b6 78 3f 57 10 75 3f 56 ab 6e 3f
       0.9573546 0.97154176 0.9572806 0.9323019
0003f0 18 ec 77 3f 53 c1 74 3f 41 4b 7c 3f ea 2d 80 3f
       0.96844625 0.9560749 0.9855233 1.0014012

layer1.2.bias f4 [256]
000000 cf c5 d0 bc b3 63 89 3c 22 29 fc bc 75 3f 2f bd
       -0.025484947 0.016771173 -0.030781332 -0.042785127
000010 82 d1 87 39 f6 27 90 bc e0 da 99 bd 8d fe 7a bc
       0.00025905302 -0.01759718 -0.0751245 -0.015319479
000020 70 1e 8e bd b3 22 b6 3b 2f 3b 3b 3d 1c 62 61 bc
       -0.06939399 0.0055583357 0.04571074 -0.013756301
000030 15 2c 06 3c 59 8a 0c bd 6c 25 89 bc a4 3e 20 3c
       0.008189221 -0.034311626 -0.016741477 0.00978056
000040 cf 17 af 3c 68 9c 69 3d 18 0e 0d 3c 2b 77 0e bc
       0.021373658 0.057033926 0.008609317 -0.008695404
000050 a8 b9 05 3d e3 d6 01 bd b5 2e c7 3c a8 4d 8c bc
       0.03264776 -0.031699073 0.024314264 -0.017126873
000060 79 80 7d 3d 1c 17 ca bb 09 1a 02 3d c4 45 20 bd
       0.0618901 -0.0061673056 0.03176311 -0.039129034
000070 13 ae b5 3d 16 59 0a bd 59 16 40 3c 9b 3c ea bc
       0.08871093 -0.033776365 0.011724078 -0.028593352
000080 55 a6 f0 3c 38 76 34 bd 13 ba 10 bc 20 1c f8 bc
       0.029376188 -0.044058055 -0.008833426 -0.030286849
000090 7a 9d 29 bd 38 1f 2a 3d 0a 8a 2c bc 6e 0d d9 bc
       -0.041409947 0.04153368 -0.010530958 -0.026495662
0000a0 56 39 37 bd d2 ab b0 bd 29 4e 1f bd 78 eb c8 3c
       -0.044732414 -0.08626522 -0.0388929 0.024526343
0000b0 a5 da f5 3c ab 74 14 3c 74 53 c1 3c d3 ce d0 bc
       0.030011484 0.009061019 0.023599364 -0.025489246
0000c0 0d 6f c6 bc d4 8b 04 bc 80 6e b4 3b b1 97 c6 bd
       -0.024222875 -0.008089978 0.0055063367 -0.096969016
0000d0 f1 d7 77 bc 19 40 96 bc 62 53 71 bd 40 ff d1 bc
       -0.015127168 -0.018341111 -0.05891741 -0.025634408
0000e0 b2 63 82 bb 6d 46 0c bd 92 1d 0b ba 0f b6 98 bd
       -0.0039791698 -0.03424685 -0.00053068355 -0.074566
0000f0 42 65 41 3b 37 07 82 3d 60 62 22 bd da b8 9f 3d
       0.0029509817 0.06349032 -0.0396446 0.077989295
000100 3a 78 4b bd 89 0e fd 3b f6 b3 0b bc 40 91 50 bc
       -0.049675204 0.00772268 -0.008526793 -0.012729943
000110 48 c1 2d bc 4b f1 4e bc 6a 17 30 3d ba 45 1d bc
       -0.010605164 -0.012630771 0.04299108 -0.009599144
000120 7c 30 66 bc 87 da f7 bc 25 05 2f bc d1 9f 06 bd
       -0.0140496455 -0.03025557 -0.010682379 -0.032867257
000130 77 04 2c bc 6f 98 6b bc f1 2c 41 bc e8 9f da bc
       -0.010499111 -0.014379605 -0.0117905 -0.026687577
000140 96 0e ff bc 0b 24 ae bc 33 ba 07 bc 83 f1 8f 3d
       -0.031134885 -0.021257421 -0.008284139 0.070284866
000150 9f 39 02 bd ed 97 57 bc fe 43 20 bc e7 0a 3b 3c
       -0.031793233 -0.0131587805 -0.009781836 0.011416174
000160 39 c6 85 bc 41 08 89 3c a2 c9 20 3c b2 ae cf bc
       -0.016329871 0.016727569 0.009813698 -0.025351856
000170 21 36 59 bc 63 a5 8c 3c 9c 9e a6 3c 90 fb 14 3d
       -0.013257534 0.017168706 0.020339303 0.03637272
000180 aa 67 65 bd 93 79 7e 3d 35 72 39 3d b6 44 1c bd
       -0.056007065 0.06212766 0.045274932 -0.038151465
000190 bc 72 fe bc 28 13 65 bd ac fd b5 3d fd b0 0b 3c
       -0.031060569 -0.055926472 0.08886275 0.008526084
0001a0 ee ba 9b 3d 29 b3 a0 3d 70 a5 f0 bc c5 b0 56 3d
       0.076040134 0.07846672 -0.029375762 0.052414674
0001b0 f9 16 2e 3b d0 1e a9 3b 80 7d 15 bd 65 60 be bc
       0.0026563986 0.005161144 -0.03649664 -0.023239324
0001c0 5a 93 47 bd 13 50 9e bc cf 23 92 3b 47 3f 71 bd
       -0.04872451 -0.019325292 0.004459835 -0.058898237
0001d0 d5 36 3b 3d be 67 b0 bc 40 20 1b bb 39 af 79 bc
       0.04570659 -0.021533843 -0.0023670346 -0.01523953
0001e0 1c 7f 81 bd 3d e3 c1 bc f5 a2 e0 bb f6 91 b7 bc
       -0.06323072 -0.023667926 -0.0068553635 -0.022408467
0001f0 52 c2 83 3c ee 39 1c bc 49 50 8a bd 75 c6 e1 bb
       0.01608387 -0.009535296 -0.067535944 -0.006890113
000200 bb 2c 59 bd 45 90 bf 3c 12 fe 75 39 ea 39 5c 3c
       -0.053021174 0.023384223 0.0002345967 0.013441542
000210 c1 6b dc bc 12 52 3a bd 8e f5 5f 3d a5 e8 bd 3c
       -0.02690685 -0.045488425 0.05467754 0.023182223
000220 71 60 66 3d e6 af 6b bc f7 84 6f bd 23 1c 31 bc
       0.056244317 -0.014385199 -0.058476415 -0.010809931
000230 80 23 10 3d 17 1e 62 3d a1 ed a5 3c 55 be ee 3c
       0.035190105 0.055204477 0.020254912 0.029143492
000240 b3 36 1d 3d 1a 21 4a bc 5f 55 19 bd aa 1e c9 bc
       0.038382243 -0.012336994 -0.03743493 -0.024550755
000250 49 14 dc bb 60 bf 29 3d 8b d8 e6 3c 93 f0 2e bc
       -0.0067162854 0.041442275 0.028179428 -0.010677475
000260 0a eb 48 bd 0f 52 23 bd 21 52 54 bd 00 fe f2 3b
       -0.049052276 -0.03987318 -0.051836137 0.007415533
000270 69 a2 f8 3b 9e 63 04 3d 94 f0 9d 3a b1 35 55 3d
       0.00758772 0.032321565 0.0012049847 0.052053157
000280 3f f2 6e bb 3e cb 6b bd ca ad bb 3c 98 ac 23 3d
       -0.0036460308 -0.057566874 0.022910018 0.03995952
000290 21 1d 4c 3c bf 15 7c bc 35 16 fd bc 6d bf 00 3b
       0.012458117 -0.015386044 -0.030894378 0.0019645349
0002a0 bc 65 ab bc e5 20 cc bc 67 8d f8 bc cd 4a 2a bd
       -0.020922534 -0.02491803 -0.030340863 -0.04157524
0002b0 c8 a5 d4 3c 09 83 19 bb b6 53 46 3c 79 89 6c 3c
       0.025957957 -0.002342405 0.012104919 0.014437073
0002c0 e3 79 8a bd e4 d5 ff ba 5b 2f 92 bd 78 17 0c bb
       -0.06761529 -0.00195187 -0.071379386 -0.0021376293
0002d0 ca 22 31 3d 09 32 72 bd 14 5c fa 3c 3b 30 81 3c
       0.043246068 -0.05912975 0.030561484 0.015770068
0002e0 7e f0 5a bd 30 7b 20 3c b6 77 95 3c 43 e8 2c bd
       -0.053452007 0.009794995 0.01824556 -0.04221369
0002f0 c8 a1 2f bd bd 7a 06 bd 01 c7 9e bd 4e ee bf 3c
       -0.042878896 -0.032831896 -0.07752801 0.023429062
000300 3b ef ce bc d4 ed a7 bd 31 6f 1d bb b3 b8 ee bc
       -0.025260558 -0.08199659 -0.0024022574 -0.029140806
000310 fd 91 d7 3c 27 5c 74 3d a4 de 11 3d 29 eb eb 3c
       0.02631473 0.059658196 0.035612717 0.028798657
000320 4c 36 17 3c a8 ae b9 bb a1 19 80 bd a3 52 56 3d
       0.009229254 -0.0056665726 -0.06254888 0.052324902
000330 1d b6 99 3d 23 07 89 bd 6d 43 f7 3b 0d 21 e9 bb
       0.075054385 -0.06690814 0.0075458796 -0.0071145357
000340 17 82 1d 3d 50 4a 0a 3d 26 8a dc bc 19 3d 0a bd
       0.03845414 0.033762276 -0.026921343 -0.033749674
000350 e8 39 91 bd 78 66 cc bc f7 37 98 3d ae ed e9 bc
       -0.07091123 -0.024951205 0.074325494 -0.028555717
000360 9e 0a 42 bd 6e a2 26 3b 95 b8 b0 3c 70 3c d1 bc
       -0.047373407 0.0025426405 0.02157239 -0.025541514
000370 b9 7c 97 3c fd a3 44 3b 9d b3 a9 3d c8 9a 5d bd
       0.01849209 0.0030004971 0.08286212 -0.05410269
000380 43 8a 97 bd fb fa 9e 3b 2e ce 9b bc c9 76 45 3d
       -0.07399418 0.0048516965 -0.019019213 0.048208985
000390 ca 53 36 bc de 2c 21 3d 49 52 59 bc cd 97 8a 3b
       -0.011128375 0.03934943 -0.013264247 0.004229522
0003a0 13 b4 d3 bc 94 c4 22 b9 91 8e df bc c3 f2 9b bd
       -0.025842702 -0.00015522755 -0.02728966 -0.076146625
0003b0 b8 c2 5c bd ee 54 27 3d 2d 10 56 bd a7 52 cb 3d
       -0.053896636 0.04085248 -0.05226152 0.09927874
0003c0 0d c7 89 bc 83 73 c3 bb b5 ad 91 bc 37 93 4f bc
       -0.016818548 -0.005964698 -0.017783025 -0.012669376
0003d0 d3 26 c1 3c 76 11 93 3d de 68 9f bd 3d a7 90 3c
       0.023578083 0.07181065 -0.07783674 0.01765787
0003e0 be 39 97 3d 07 9d a7 bc ad 28 66 3b b0 2b b8 3c
       0.0738406 -0.020460619 0.003511946 0.02248177
0003f0 e7 4c 35 3b 36 4f 23 3d 74 34 c5 3c d7 ed 96 bd
       0.0027664246 0.039870463 0.024072863 -0.07369583

layer1.2.running_mean f4 [256]
000000 b7 f8 f4 3d 54 e1 44 3d 8c 92 16 3e 91 79 48 3e
       0.11961501 0.048066452 0.1470434 0.19577624
000010 fc cf f7 3d ba 04 d9 3d 4c 0f f9 3d 7d 2c c5 3d
       0.12100217 0.10596605 0.12161121 0.09627626
000020 1d 07 e1 3d c2 cf 49 3d 04 e3 89 3d 3c 4e 50 3d
       0.10987685 0.0492704 0.06732753 0.05085586
000030 2b 55 61 3d 38 74 e6 3c 82 6e 3b 3d a8 9e 34 3d
       0.055012863 0.02813159 0.045759685 0.04409662
000040 cf fa a2 3d 96 cd 1a 3e d0 56 3e 3d 1b aa db 3d
       0.07957994 0.15117487 0.04646951 0.107258044
000050 14 31 1d 3d e0 0e 78 3e 0e 3f 52 3e 3d c7 8d 3e
       0.038376883 0.24224424 0.20531866 0.2769107
000060 e5 1e 23 3d f9 25 be 3d 89 ca 9f 3d da ac 30 3e
       0.039824385 0.092845865 0.078023024 0.17253438
000070 46 90 dd 3d 1b bf 42 3c e3 e9 af 3e e9 3b 21 3e
       0.108185336 0.011886383 0.3435813 0.1574551
000080 0e 62 9e 3c 16 78 8a 3d 3b 45 01 3e 04 7e d3 3d
       0.019333865 0.06761186 0.12624066 0.1032677
000090 60 65 5f 3e 35 a4 05 3e a4 41 5f 3d 50 68 c5 3c
       0.21816015 0.13050921 0.05450596 0.024097592
0000a0 10 c3 58 3d 80 67 43 3d 27 79 b2 3d 6d f6 11 3e
       0.0529204 0.047706127 0.08714514 0.1425416
0000b0 86 ee 4b 3e 91 4b 53 3e 53 d6 35 3d ba 91 23 3e
       0.19915208 0.20634295 0.04439385 0.15973559
0000c0 59 e1 00 3d 6b 4b c8 3d 79 2f 12 3e 2e 7b 82 3e
       0.03146491 0.0978001 0.14275922 0.25484604
0000d0 8b cd 30 bc 66 84 d6 3d 98 3a 4d 3e fe 3a 5a 3d
       -0.010791193 0.10474472 0.20041883 0.053278916
0000e0 31 84 09 3d 1f 14 ef 3d 9a 12 7d 3d 83 49 b3 3d
       0.033573333 0.1167376 0.061785318 0.087542556
0000f0 58 63 49 3d 2b 2f 56 3d fa fc 8e 3d 9c 64 8d 3b
       0.049167007 0.052291077 0.06981845 0.004314972
000100 1d e3 74 3d f8 65 a3 3d eb b7 c0 3d b1 93 cc 3c
       0.059786905 0.07978433 0.094100796 0.024972769
000110 b0 75 4b 3e 8f d7 37 3e 0d 28 8e 3e 77 ca 2a 3e
       0.19869113 0.17953323 0.2776493 0.16678797
000120 9e df f8 3d c4 e5 73 3e 56 0b 07 3e bf 28 ff 3d
       0.121520266 0.23818117 0.13187918 0.124589436
000130 e3 50 97 3d 3c 20 33 3d 6d ff 51 3d b9 22 8f 3d
       0.07388475 0.043731913 0.051268984 0.06989045
000140 67 29 35 3d a2 2f b0 3d 43 5b 1e 3d d3 3a 36 3d
       0.044228937 0.08602835 0.038661253 0.044489693
000150 27 38 b2 3d 9b 14 28 3e f4 71 22 3d e1 cf c3 3d
       0.087021165 0.1641411 0.039659455 0.09561134
000160 a1 a1 0e 3d c5 a2 a7 3d d3 70 4a 3d 23 ba ed 3d
       0.03482211 0.08185343 0.049424004 0.116077684
000170 1e 38 f5 3d f9 9b 3c 3d 6f 3b 1c 3e 4d 7e 97 3d
       0.11973594 0.046047185 0.15257047 0.07397137
000180 69 a9 aa 3d 80 da 83 3d 70 6a ac 3e d0 b9 9d 3e
       0.08333094 0.0643816 0.33674955 0.30805826
000190 01 ed 86 3d fd 0f cc 3d 77 6b 67 3e 5e fa 7a 3d
       0.06588174 0.09963987 0.22599588 0.061273925
0001a0 28 24 4d 3d 51 89 bb 3d 82 5d dd 3d 35 f6 f6 3b
       0.05008331 0.091570504 0.10808851 0.0075366744
0001b0 cb 6b 14 3e bc 36 7a 3e 1c df fc 3d ad 6a 78 3d
       0.14494245 0.24434942 0.12347242 0.06064861
0001c0 d3 61 85 3d 79 76 8c 3d 5c dc 3f 3e b8 ab 0e 3e
       0.06512799 0.06858534 0.18736404 0.13932693
0001d0 18 d5 8a 3d 1a 77 a6 3d c4 6c 00 3e 1e 65 e4 3d
       0.06778926 0.081281856 0.12541491 0.11152099
0001e0 0d 0b 9b 3c bd 63 cd 3d 65 21 a3 3d 19 66 a4 3d
       0.018926168 0.10028789 0.07965354 0.08027286
0001f0 79 10 b4 3d 3f 4f 0b 3e 6e a7 9d 3d 18 cd fc 3b
       0.087922044 0.13604449 0.0769795 0.007714879
000200 d7 56 8f 3d d6 22 d9 3d 86 0e fd 3c 5f 8e d4 3d
       0.06998985 0.106023476 0.030890714 0.10378718
000210 75 dd bb 3d 92 e1 ce 3c c2 43 d2 3d 30 b0 c3 3d
       0.09173099 0.025254045 0.1026683 0.095550895
000220 5c b4 89 3d a3 13 ed 3c 1d 89 92 3d 32 ab dc 3d
       0.06723854 0.028940028 0.071550585 0.107748404
000230 8b 46 4b 3c 16 47 31 3d 1d 76 c1 3d 6a dd 43 3d
       0.0124069555 0.043280683 0.094463564 0.04781858
000240 90 ba 76 3d 0e 9c 59 3d e8 c2 19 3e 73 8b dc 3d
       0.060236514 0.05312734 0.15015757 0.10768785
000250 5c b0 ce bc d1 da ea 3d f5 c2 1f 3e d4 2a b9 3d
       -0.02523058 0.11467517 0.15601714 0.09041372
000260 6a cc 16 3e 6e c6 9b 3d b0 56 a0 3d cb 93 76 3d
       0.14726415 0.07606207 0.07829034 0.06019954
000270 5a b2 8a 3d a8 a7 17 3e 23 6e 9a 3d 6a 50 1c 3d
       0.06772299 0.1481005 0.07540538 0.038162626
000280 f6 ca 85 3d e1 05 c3 3d 92 c8 cf 3e 06 8d 0f 3d
       0.06532852 0.09522606 0.4058271 0.0350466
000290 94 10 5a 3d 4c 40 07 3d 03 16 b4 3b 9c 18 9b 3d
       0.053238466 0.033020303 0.005495788 0.07573053
0002a0 18 9d 74 3e 53 3f d2 3d 5a f0 26 3e ff 64 83 3d
       0.23888052 0.102659844 0.16302624 0.06415748
0002b0 7d c8 04 3e 6e 77 48 3e 3f 04 e3 3d bc c5 0d 3e
       0.12967105 0.19576809 0.11084794 0.13844961
0002c0 e6 58 08 3e 18 01 d3 3d d3 e2 bb 3d 09 12 12 3d
       0.13315162 0.10302943 0.09174123 0.03566173
0002d0 9b 2c 6d 3e 3d 8a bd 3d 29 2d c9 3d 6c c0 39 3d
       0.23161547 0.092548825 0.09823067 0.045349523
0002e0 22 a4 c6 3d 1c c7 5b 3d 78 00 c5 3c ad 67 2c 3d
       0.096992746 0.053656682 0.024048075 0.04209106
0002f0 aa 4e a1 3c 83 0a 47 3e b6 01 e8 3d 9b 31 ae 3d
       0.01969083 0.19437604 0.11328451 0.08505555
000300 77 19 54 3d 1e 22 15 3e df a5 98 3e 34 68 22 3d
       0.051782098 0.14563796 0.2981405 0.039650157
000310 17 47 f4 3d 1b 60 8f 3e bd 93 3d 3d c9 a2 35 3e
       0.11927622 0.2800301 0.046283472 0.17737879
000320 6c cb 22 3e 69 57 c1 3d cc 26 32 3d 30 1b d7 3d
       0.15897912 0.094405 0.04349403 0.105032325
000330 d2 2a fe 3c 47 ce f4 3d fe d4 a1 3d 8e 16 7b 3d
       0.031026278 0.11953407 0.07901953 0.061300807
000340 8c 76 c1 3d 0e 6d dd 3d 42 e9 2e 3e 36 e7 40 3d
       0.09446439 0.10811816 0.17081168 0.0470955
000350 a2 f7 be 3d a0 5e b3 3d 16 85 b2 3d 9f fe 9c 3e
       0.09324576 0.08758283 0.087167904 0.3066301
000360 50 88 e9 3d b7 c9 5a 3e da 44 78 3d cb 04 43 3e
       0.11402953 0.2136601 0.060612537 0.19044797
000370 94 c3 a1 3d 32 c2 07 3e 63 cc a6 3d 9b a9 31 3d
       0.07898632 0.13257673 0.081444524 0.04337464
000380 04 73 1c 3e 0e ca b1 3d 25 d3 ca 3d b9 68 29 3d
       0.1527825 0.08681117 0.09903554 0.041359637
000390 25 13 dd 3d c5 fc d8 3d f6 45 2b 3e b5 82 ba 3d
       0.10794667 0.10595087 0.16725907 0.09106962
0003a0 46 74 10 3e 8e c5 83 bd 0c 50 e1 3c 70 3a ca 3d
       0.14106855 -0.06434165 0.02750399 0.09874427
0003b0 56 30 84 3d c7 9f 7e 3d 1b 51 fd 3b 0a 35 63 3e
       0.06454532 0.062164094 0.007730616 0.22188202
0003c0 f7 08 09 3e 8b 60 2e 3e 4a 19 62 3d 02 d5 82 3d
       0.13382326 0.17029016 0.0551999 0.06388284
0003d0 c6 3e 16 3e e3 df 78 3d bc 68 6c 3c a1 8d b4 3d
       0.14672384 0.06076039 0.0144292675 0.08816076
0003e0 a4 53 d2 3d 91 a2 0f 3e 3f 12 de 3d 2b ec 11 3c
       0.102698594 0.14026858 0.10843324 0.0089064045
0003f0 de 7a 20 bb b6 c4 74 3e e4 1d 00 3e 70 0d 84 3c
       -0.0024487297 0.23903164 0.12511402 0.016119689

layer1.2.running_var f4 [256]
000000 84 ef 14 3e 00 3b 44 3d ac e3 41 3e 4b dc 3a 3e
       0.14544493 0.04790783 0.18934506 0.18248098
000010 53 64 2b 3e 1a ff 2b 3e 3e b4 22 3e 4d 69 4d 3e
       0.1673749 0.16796532 0.1588907 0.200597
000020 9b 0d f6 3d 10 02 86 3d 31 45 88 3d e3 17 67 3d
       0.12014314 0.06543362 0.06653822 0.056419265
000030 f8 31 5f 3d 7d e0 80 3d a6 12 86 3d fb b1 8e 3d
       0.054491013 0.06292818 0.06546526 0.06967541
000040 e7 75 f3 3d a8 d0 25 3e 74 1c 98 3d 34 90 cf 3d
       0.118877225 0.16192877 0.07427302 0.101349264
000050 1f a9 6d 3d 6b 0a ce 3e 75 ca 34 3e 88 fb a7 3e
       0.058022615 0.40242323 0.17655356 0.3280909
000060 2c c7 69 3d f3 6a 8b 3d 70 5f c5 3d 01 e8 a5 3e
       0.05707471 0.06807508 0.09637344 0.32403567
000070 a6 0d 43 3e 97 20 69 3d 66 fb f7 3e 5e ac 19 3e
       0.19048175 0.056915846 0.4843399 0.15007159
000080 3e 1e 61 3d 06 e2 a4 3d b6 28 82 3e b3 07 00 3e
       0.05496048 0.08050923 0.25421685 0.12502937
000090 fe 88 75 3e 34 30 8a 3e e1 42 a1 3d 75 2d 21 3d
       0.2397804 0.269899 0.07874084 0.03934999
0000a0 2a 54 42 3d 65 53 9b 3d ab a8 d0 3d 7f 05 20 3e
       0.047443546 0.075842656 0.10188421 0.15627097
0000b0 29 42 d0 3e 94 41 5d 3e 03 a5 ab 3d 98 2d 29 3e
       0.40675476 0.21607047 0.08381083 0.16521299
0000c0 a5 3d 9e 3d b5 21 20 3e 3f 2e 0a 3e a0 cf 57 3e
       0.077266015 0.15637858 0.13494204 0.21075296
0000d0 fa 9f 07 3d 6f 85 d9 3d 7d 7d 24 3e 2e 3b 79 3d
       0.03311155 0.106211536 0.16063495 0.060847454
0000e0 0a 95 1b 3d ae b5 d2 3d a3 96 8b 3d ed 92 a7 3d
       0.03798393 0.10288559 0.06815841 0.08182321
0000f0 44 bf 6c 3d 33 3a 2a 3d 45 40 83 3d 39 65 38 3d
       0.057799593 0.04155941 0.06408743 0.04501841
000100 a8 8f 1b 3d 7a a9 08 3e 5f e5 e3 3d e1 48 43 3d
       0.0379788 0.133459 0.111277334 0.047676925
000110 4b 5d 59 3e 1b e3 f4 3e 45 01 b3 3e 51 ff 0b 3e
       0.21226995 0.47829518 0.34961906 0.13671614
000120 e7 60 2c 3e 84 5e ae 3e 6d 45 0f 3e a1 2a 31 3e
       0.1683384 0.34056485 0.13991328 0.17301418
000130 bb b2 e6 3d 6c 1b 82 3d 8e 82 e1 3d e8 e7 6f 3d
       0.11264559 0.063528866 0.110112295 0.058570772
000140 61 64 9d 3d ab 36 a7 3d 40 e7 81 3d 75 c4 2d 3d
       0.076851614 0.08164724 0.063429356 0.042423684
000150 a8 2b 92 3d b8 a3 61 3e 6c 13 3a 3d 89 97 70 3d
       0.07137233 0.2203511 0.04542868 0.058738265
000160 ec fa 30 3d b2 08 aa 3d 15 ac 2e 3d f5 e4 46 3e
       0.043208048 0.0830244 0.04264458 0.19423278
000170 c7 f3 c5 3d ab 23 24 3d 4c 85 64 3e 01 32 98 3d
       0.096656375 0.040073078 0.22316474 0.074314125
000180 f6 54 c0 3d 0f 92 a0 3d 6e a7 bc 3e ae b4 87 3e
       0.09391205 0.078403585 0.3684649 0.26505035
000190 df e6 a0 3d 30 cd 03 3e 3d 71 84 3e ff a6 a4 3d
       0.07856535 0.12871242 0.25867644 0.080396645
0001a0 f9 3c 3b 3d a0 aa aa 3d 74 49 0d 3e 33 38 76 3d
       0.045712445 0.083333254 0.13797551 0.06011219
0001b0 18 71 3a 3e cd 34 32 3e 5b 28 2d 3e 35 75 90 3d
       0.18207204 0.17402954 0.16909926 0.070536055
0001c0 4d 71 9d 3d 9e 06 0b 3e d3 85 a3 3e b7 89 3c 3e
       0.07687626 0.13576743 0.31938037 0.18411909
0001d0 4f e8 a2 3d 8c 66 ce 3d 54 d3 1f 3e bf 77 17 3e
       0.079544656 0.10078153 0.15607959 0.14791773
0001e0 44 8c 3c 3d 6d 69 f2 3d f2 4d ad 3d a5 3b a3 3d
       0.046032205 0.118365146 0.084621325 0.07970361
0001f0 37 d3 ef 3d b1 23 44 3e 0e c6 d1 3d 72 b8 15 3d
       0.11710208 0.1915424 0.10242854 0.036552854
000200 83 aa 60 3d 49 1f d5 3d 08 78 1d 3d df 32 c1 3d
       0.054850113 0.10406358 0.03844455 0.09433531
000210 fb a6 d7 3d b5 9c 70 3d 22 d6 06 3e 3b 6c fe 3d
       0.10529896 0.058743197 0.13167623 0.12422987
000220 62 84 cb 3d 49 69 12 3d 11 f1 c9 3d 15 8a 30 3e
       0.099373594 0.03574494 0.09860433 0.17240174
000230 f6 8b 38 3d 99 70 7b 3d 72 1d 6e 3e 31 7e b8 3d
       0.045055352 0.06138668 0.2325342 0.09008444
000240 76 00 a3 3d 58 5d 44 3d 3b a6 24 3e 53 bf 0b 3e
       0.07959072 0.047940582 0.16079037 0.13647203
000250 cc 6d fa 3c 6a d2 f3 3d 02 50 37 3e f6 b9 f2 3d
       0.030569933 0.11905368 0.17901614 0.118518755
000260 a2 0a 33 3e 70 82 7f 3d dc bc c3 3d 1a ac a4 3d
       0.17484525 0.062380254 0.095575064 0.08040638
000270 98 86 e9 3d 7b 1b ef 3d d2 e3 95 3d 6d 83 b0 3d
       0.11402625 0.11675163 0.07318844 0.086188175
000280 26 58 d0 3d be 83 be 3d f5 15 e3 3e 34 8a 84 3d
       0.10173063 0.093024716 0.4435269 0.06471673
000290 67 6a 3a 3d b6 32 a1 3d d6 92 d2 3c 10 fd cb 3d
       0.04551163 0.078710005 0.025704782 0.09960377
0002a0 4d 7a 3d 3e ff 1a 0b 3e 7d 07 27 3e 85 c9 d0 3d
       0.18503685 0.13584517 0.1631145 0.10194687
0002b0 0d 4f f1 3d e6 c2 65 3e 44 0f 0d 3e f9 33 d5 3d
       0.11782656 0.22437629 0.13775355 0.104103036
0002c0 95 15 0b 3e 52 b4 21 3e 95 a6 09 3e fb f4 93 3d
       0.13582452 0.15791443 0.13442452 0.07224461
0002d0 d0 2c 20 3e 84 d3 2a 3e eb fa 3f 3d 15 45 2f 3d
       0.15642095 0.1668225 0.046870153 0.04279049
0002e0 79 01 95 3d 16 2d 79 3d e8 e9 35 3d b2 51 73 3d
       0.072756715 0.060834013 0.044412524 0.059404083
0002f0 15 8c 72 3d 89 69 25 3e b3 3c c9 3d 08 0b cb 3d
       0.059215624 0.1615354 0.098260306 0.099142134
000300 88 24 81 3d 72 9b 29 3e b2 5d 6f 3e a5 27 99 3d
       0.06305796 0.16563204 0.23375586 0.07478265
000310 b3 73 24 3e d6 98 e4 3e 46 b0 92 3d e3 97 93 3e
       0.16059761 0.44647855 0.07162528 0.28826818
000320 72 1e 37 3e 53 a1 81 3d 19 87 ab 3d 3d f6 d7 3d
       0.17882708 0.06329598 0.08375377 0.10545013
000330 fc d0 a7 3d 02 95 0f 3e 63 fa bb 3d 5c ed fb 3d
       0.081941575 0.14021686 0.09178617 0.12301132
000340 eb 9c 2d 3e a5 3d f0 3d f7 37 f2 3d b4 fa 94 3d
       0.1695439 0.11730508 0.11827081 0.0727438
000350 4d 44 bb 3d 3b fc 00 3e 7c e2 16 3e 75 19 a3 3e
       0.09143887 0.12596218 0.14734834 0.3185536
000360 b6 63 a7 3d 45 e2 5f 3e 80 ef 8d 3d ad 4d 43 3e
       0.08173315 0.21863659 0.069304466 0.190726
000370 1c 0c db 3d 73 5d 16 3e b6 68 c1 3d a3 dd b8 3d
       0.10695669 0.14684086 0.094438 0.09026649
000380 03 0f 4e 3e 82 84 31 3e 3a e3 ad 3d 94 2a 31 3d
       0.20122914 0.17335704 0.08490606 0.043253496
000390 dd 87 96 3d c1 77 fc 3d 95 a9 b1 3e d5 b7 cc 3d
       0.073501326 0.12327529 0.34699693 0.09996001
0003a0 db 67 43 3e 5f 0b bc 3c 8b 10 72 3d 49 2f c1 3d
       0.19082586 0.02295464 0.059097808 0.09432847
0003b0 f1 e3 5d 3d 63 ad 55 3d 5e a2 00 3d 4d 45 85 3e
       0.05417246 0.052167308 0.031404845 0.26029435
0003c0 89 59 47 3e 1f b3 5d 3e 89 df 8c 3d 22 99 5c 3d
       0.19467749 0.2165036 0.068785734 0.053856976
0003d0 6c 90 a4 3e fc c9 bb 3d ac 15 29 3d d3 db 39 3e
       0.32141435 0.09169385 0.041280434 0.18150263
0003e0 29 a2 cf 3d 12 49 8a 3e b8 29 bf 3d 4b ef 11 3d
       0.101383515 0.27008873 0.09334129 0.0356286
0003f0 12 c5 03 3d 37 e0 81 3e 5a 1d 75 3e 21 3e 6c 3d
       0.032170363 0.25366375 0.23936978 0.05767644

layer2.0.weight f4 [256, 256]
000000 0e 22 d8 bc 9d 31 e8 bd 92 f3 e5 3d 4f 6a 91 bc
       -0.026383426 -0.11337588 0.11228098 -0.017750887
000010 47 9d a9 bc 74 b9 46 bd 84 58 4a 3b 37 84 bf 3a
       -0.020704878 -0.048516706 0.0030875513 0.0014611547
000020 0c 4b 25 3d f4 e7 51 3d ab 67 23 3d ce ef b2 3d
       0.040354773 0.0512466 0.039893787 0.08737145
000030 2c f2 c5 3d 30 c3 f5 ba c3 23 27 3d 9c 18 0f 3d
       0.09665331 -0.0018750187 0.04080559 0.03493558
000040 e5 44 72 3b 58 dd 70 3d a8 9d 1c 3e 93 89 89 bc
       0.0036967334 0.05880484 0.15294516 -0.016789233
000050 52 06 e1 3d 2f 29 e5 bd d7 8f 01 bd 69 b0 47 3d
       0.10987534 -0.11189496 -0.031631317 0.048752222
000060 61 5c c7 3c f6 80 8c 3a ce f1 f5 bc 34 d6 da bb
       0.024336042 0.0010719586 -0.030022528 -0.006678367
000070 ae f3 f6 3d a4 56 e8 bd 8c 1f b7 3b 0c 1c 29 bb
       0.12058197 -0.113446504 0.0055884775 -0.002580407
000080 db 0a 16 3d 8f b7 91 bd 00 54 94 bd 30 ea ce bc
       0.036631446 -0.07115089 -0.07242584 -0.025258154
000090 35 aa c0 3b d6 64 71 bd 31 b3 58 3c 4e 3e 72 bd
       0.0058796653 -0.058934055 0.013226316 -0.05914145
0000a0 61 fe aa 3d e5 c7 bb 3d 2d d9 8b 3c b2 1f 5d 3c
       0.083493 0.09168986 0.01707133 0.013496326
0000b0 ae fa 83 bd 82 3a c8 bc a3 7c b0 bc a8 14 16 3e
       -0.06444298 -0.024441961 -0.021543806 0.14656317
0000c0 47 e9 2e 3d d3 30 7a 3c 06 88 90 bc d7 8a 5c 3c
       0.04270294 0.01527043 -0.017642986 0.013460836
0000d0 37 06 75 3d bb 61 81 bd 03 bd f2 3c ab e9 bc 3c
       0.05982038 -0.06317469 0.029631143 0.02306064
0000e0 66 7f 43 bc f3 1d a2 bd 23 b3 4d 3d d8 f9 4c 3d
       -0.01193223 -0.079158686 0.050219666 0.050042957
0000f0 93 15 8c bd 3f 6b a0 bd 24 a1 b3 bd 9a c5 a3 bd
       -0.068400525 -0.078329556 -0.087709695 -0.07996674
000100 f0 07 17 bd a5 73 5a 3c 81 d6 b1 bd e5 1b d6 bd
       -0.036872804 0.013333236 -0.086834915 -0.10454539
000110 67 f1 09 3d ba ad 56 bb 08 13 60 bd b7 75 e9 3d
       0.033677485 -0.0032757358 -0.05470565 0.113994054
000120 03 ed 45 bd a3 43 5c bd bd d6 a4 bd b5 d4 84 bc
       -0.048321735 -0.05377544 -0.080487706 -0.016214708
000130 6e 6f b9 3d eb 73 a7 3c 50 1b 94 bb 70 d1 32 bd
       0.09054457 0.020441016 -0.0045198575 -0.043656766
000140 93 c6 76 bd ef 25 20 be 2c 6e 67 3d 64 7a 65 3d
       -0.06024797 -0.1563947 0.056501552 0.056024924
000150 8e df 10 3d a1 9f 35 3c 6c 32 9f bc 7b d2 af 3a
       0.03536945 0.011085422 -0.019433223 0.0013414168
000160 28 80 c6 3d 8f 5b 84 bc 5a 5e 16 3c e0 68 ea 3d
       0.096924126 -0.01615694 0.009177769 0.114457846
000170 f1 03 b8 3a ed 2f 5e bd 4d b2 2f 3d 93 56 29 bd
       0.001403926 -0.054244924 0.04289465 -0.04134233
000180 71 1a e7 bc e7 e3 e5 3d c1 a5 74 3d bc 7b 89 bd
       -0.02821085 0.112251095 0.059728388 -0.067130536
000190 25 17 1d bd e0 9b 86 3d c3 f2 2a bd bf e3 d1 3d
       -0.03835215 0.065726995 -0.041735422 0.10248517
0001a0 69 fd 1a bd 2c 90 85 3b 3b 02 29 bd 9e 0a 4f bd
       -0.037839327 0.0040760245 -0.041261893 -0.050547235
0001b0 14 21 59 3d 03 ff 6b 3d 31 6f f9 bc 3f 72 b2 3d
       0.05301006 0.057616245 -0.030448528 0.08713197
0001c0 d5 7c bd 3d 99 79 3d bd 60 c9 37 bc 27 c4 f1 bd
       0.092523254 -0.046258543 -0.011217445 -0.11804991
0001d0 f5 41 1f bb fa 51 60 3c 2d 72 a8 bd 97 5e 92 bd
       -0.0024300788 0.01369142 -0.08224902 -0.07146948
0001e0 1a a9 56 bd fa 80 c5 3d 30 a4 76 bc 49 5e bb bd
       -0.05240736 0.09643741 -0.015053794 -0.09148843
0001f0 c4 0e 5f bd fc 54 0c 3d b5 7d f2 bd c9 0f c2 bc
       -0.05445744 0.034260735 -0.11840383 -0.023689168
000200 ac 8f 2f 3d 7f ff 56 bd 79 52 0b 3d ad be 7b bd
       0.042861626 -0.052489754 0.0340142 -0.06146114
000210 d4 a0 41 3c f3 1d 7b bd e2 99 2f 3d 10 a9 17 bc
       0.01181813 -0.06130786 0.042871363 -0.009256616
000220 0b 20 41 3c dc 9b 8c bd 8f ab d6 bd 34 8f 09 be
       0.011787425 -0.06865665 -0.10481941 -0.13433534
000230 e1 03 23 3d 47 6c 80 3c 52 20 6c 3d 75 a6 2f 3c
       0.03979862 0.01567663 0.05764801 0.010720839
000240 70 9f 7d bc fd 7c 73 bc e8 83 9b bd 5b bc 9a bc
       -0.015479907 -0.0148613425 -0.075935185 -0.018888643
000250 f6 6d fa 3c c2 d1 d4 bc 04 f0 cc 3d 0c ec 0c be
       0.030570012 -0.025978927 0.10006717 -0.1376192
000260 9d 63 8b 3c 46 5c 2d bd 3e 70 10 3d 3d 8a f4 3c
       0.017015273 -0.042324327 0.035263292 0.029851073
000270 51 e3 62 3c 65 fa 98 bd 65 96 73 bd 9d 1a 04 3d
       0.013848142 -0.07469634 -0.0594696 0.032251943
000280 2c 53 d1 bd c8 c6 d8 bc 80 71 4b bd 52 9b bd 3d
       -0.10220942 -0.026461974 -0.04966879 0.092581406
000290 42 bc e7 3d 09 06 a4 bc 3f 12 d8 bd ea ca 6a bd
       0.11315204 -0.020022409 -0.10550355 -0.05732242
0002a0 b7 0b 4a bc 04 fa cf bd 5e 04 56 3e ea f2 cf bc
       -0.012331895 -0.101551086 0.20900103 -0.025384385
0002b0 0e aa 97 3d 0f 00 9f bc 06 97 72 be 4b d4 a6 bb
       0.07405482 -0.019409208 -0.23690423 -0.0050912253
0002c0 30 e0 69 3d 82 61 2e 3d a6 63 e9 3c 42 ee 97 bb
       0.057098567 0.04257346 0.028489899 -0.004636557
0002d0 c4 9f 3c b9 e2 aa c5 bd 38 78 23 3d b1 7b e2 3b
       -0.00017988594 -0.09651734 0.03990957 0.006911718
0002e0 d2 56 c2 bb de 1e 18 3c 92 87 29 3e 92 f8 73 bc
       -0.00593076 0.009284703 0.16555622 -0.014890807
0002f0 cf af 40 3c 8c 42 68 bc 5a 91 45 bc 6f 78 ba 3c
       0.011760666 -0.014176022 -0.01205858 0.022762505
000300 72 83 5c 3d 87 f9 08 3e bf 2d 97 bb ff 13 51 bc
       0.053836294 0.13376437 -0.0046136077 -0.012761115
000310 3c 31 3a 3d 29 3a 5c bd 7a 86 3c bd 80 92 22 bd
       0.04545711 -0.053766403 -0.046026684 -0.039690495
000320 cf d1 f1 3d 87 28 ee bd 59 a2 6b bc e6 5f ef bc
       0.11807596 -0.11628824 -0.014381968 -0.029220533
000330 d7 05 98 3d 72 cf 99 bc 13 2d 05 3e 54 64 ef bb
       0.07422989 -0.018775675 0.13005476 -0.007305661
000340 67 12 de bd 7a 64 43 3d d5 5f 84 bd 94 a0 92 3c
       -0.10843354 0.047703244 -0.06463591 0.017898835
000350 ff 06 42 bc 28 86 06 3d 41 dc 1a bc 81 38 25 3d
       -0.011842488 0.032842785 -0.009451927 0.04033709
000360 3e 7c 99 3c cf 5a 20 bd 99 6e 26 bd 1e 6e 87 3d
       0.018736001 -0.0391491 -0.040632818 0.066128
000370 91 7d 6c be 8f 87 a6 bb 52 23 c2 bc 28 25 cb bd
       -0.23094775 -0.005082078 -0.023698483 -0.09919196
000380 2b 0e 7d bc c4 b2 0c be 46 30 b5 bd a2 46 37 bd
       -0.015445272 -0.13740069 -0.08847098 -0.044745095
000390 0f 34 83 3d 2e ad 0f bd a9 26 84 bd ae f7 2a 3d
       0.06406414 -0.035077266 -0.06452686 0.041740112
0003a0 46 6f 3c 3d 8a 41 15 bd ac b4 7c bd ec 31 9e 3d
       0.046004556 -0.036439456 -0.06169574 0.077243656
0003b0 8a 7f 31 bd 11 b1 1f be dd de 9d 3c bd b1 0c 3d
       -0.04333452 -0.15594889 0.019271309 0.034349192
0003c0 46 da 33 bd 44 60 6d 3d c5 2e da bd 69 85 12 3d
       -0.043909334 0.057953134 -0.10653452 0.03577176
0003d0 c7 6b 5e bd a0 c6 a0 bd 43 3c 4f 3d 25 c6 f8 3d
       -0.054302003 -0.07850385 0.05059458 0.12147168
0003e0 93 ed ad bc 69 8f 31 3d ef 4a 03 3d e1 54 1b 3d
       -0.021231448 0.043349657 0.032053884 0.037922744
0003f0 75 ec 4e 3d 0e 1c 9b 3d 1d 0d b4 bd 66 d8 57 3b
       0.05051847 0.075737104 -0.08791564 0.003293538
