mlp_regressor_relu.pth (torch, 662066 bytes, 25 tensors)

layer1.0.weight f4 [256, 52]
0	0x3ea4c647	0.32182524
1	0xbe5f393b	-0.21799175
2	0xbd5b60e4	-0.0535592
3	0x3ed19add	0.40938464
4	0xbe510a19	-0.20414008
5	0xbe8a5f51	-0.27025846
6	0xbe7fe6b7	-0.24990354
7	0x3e6c9b30	0.23106074
8	0x3e35c607	0.17751323
9	0x3ea87a12	0.32905632
10	0x3df9e414	0.122017056
11	0xbe523b12	-0.20530346
12	0xbe11c0c1	-0.14233686
13	0xbdc6581c	-0.09684774
14	0xbd2f888b	-0.042854827
15	0xbea28eb1	-0.3174949
16	0xbe0ca251	-0.13733794
17	0xbde7999b	-0.11308595
18	0x3e169c8d	0.14708157
19	0x3ebb89a0	0.36628437
20	0x3d8c60a8	0.06854373
21	0x3f09dab7	0.5384936
22	0xbe838bb9	-0.25692537
23	0x3e35a56f	0.17738889
24	0x3e019200	0.12653351
25	0xbd892968	-0.06697351
26	0x3d8b6c37	0.0680775
27	0xbd3cd330	-0.04609984
28	0x3e535fb9	0.20641984
29	0x3b7ccb14	0.0038573192
30	0x3e0daba4	0.13835007
31	0x3e19a937	0.15005957
32	0x3cf6e194	0.03013686
33	0xbe0f1998	-0.13974607
34	0xbe7fa9ad	-0.2496707
35	0xbe0984ba	-0.13429537
36	0xbe5e23a3	-0.21693282
37	0xbd40752a	-0.046986736
38	0xbe4f7d86	-0.20262727
39	0x3dc19e06	0.09453969
40	0xbe5d635a	-0.21619931
41	0x3e9c7983	0.30561456
42	0xbdfade86	-0.12249474
43	0x3e95e89f	0.29279038
44	0xbc9067e5	-0.017627666
45	0x3e93d486	0.2887308
46	0x3dc7d492	0.097573414
47	0x3d865ea6	0.065610215
48	0xbd952e1e	-0.07284187
49	0x3d848b6f	0.06471907
50	0x3de43931	0.11143721
51	0x3d3f7a96	0.046747766
52	0xbe2c99f8	-0.1685561
53	0x3eac2b18	0.33626628
54	0xbd98df58	-0.074644744
55	0x3e647257	0.22309242
56	0x3dd09eeb	0.10186561
57	0x3e256032	0.16149977
58	0xbec07b55	-0.37594095
59	0x3e6a75d5	0.22896512
60	0x3d9bc440	0.07605791
61	0xbe580dbd	-0.2109899
62	0xbe56b5ed	-0.20967837
63	0x3e5926d2	0.21206215
64	0xbe71b666	-0.23604736
65	0x3d161db1	0.03664941
66	0xbe0df989	-0.13864721
67	0x3e0f160d	0.13973255
68	0xbd7a04cc	-0.06103973
69	0xbd39d90c	-0.045373008
70	0xbeb4ffb8	-0.35351348
71	0xbb0e1a8f	-0.002168331
72	0xbd700d1a	-0.058606245
73	0x3d228fb8	0.039687842
74	0x3d48b38f	0.048999365
75	0xbe14f413	-0.14546232
76	0x3e847898	0.25873256
77	0xbdfc2f16	-0.123136684
78	0xbe9db9c6	-0.30805796
79	0x3dc5b466	0.09653549
80	0xbe46bf50	-0.19408917
81	0x3e470403	0.19435124
82	0xbe14c383	-0.14527707
83	0xbd391a78	-0.04519126
84	0x3e82bd57	0.2553508
85	0x3ca0c874	0.019626833
86	0xbd901b0c	-0.07036409
87	0xbd851e56	-0.06499927
88	0xbeb6f7f2	-0.35736042
89	0xbe26e1e5	-0.1629711
90	0xbe2dbbe7	-0.1696621
91	0x3daf2f1e	0.08553909
92	0xbc3c7b0b	-0.011503945
93	0xbda3fc29	-0.0800708
94	0x3d79a4ad	0.060948063
95	0xbe25ed08	-0.16203701
96	0x3d58d639	0.052938674
97	0x3df862d0	0.12128222
98	0xbe0c7f51	-0.13720442
99	0x3ebc39b9	0.3676279
100	0xbe87c014	-0.2651373
101	0xbd932533	-0.071848296
102	0x3e7b8477	0.2456225
103	0x3dd07661	0.10178829
104	0x3d47fc5d	0.048824657
105	0x3e289be6	0.1646572
106	0x3e77b6cf	0.2419083
107	0x3e7c381f	0.24630783
108	0x3de9645f	0.113960974
109	0x3dcb0cc2	0.09914543
110	0xbe4b5d60	-0.19859838
111	0x3d9cdf43	0.07659771
112	0xbc2ff286	-0.010738974
113	0xbdb49b51	-0.08818687
114	0x3e585a4d	0.21128197
115	0x3dec7e7c	0.115475625
116	0xbea9f198	-0.33192134
117	0x3e4f3980	0.20236778
118	0x3c99d451	0.018777998
119	0x3dd2c61d	0.10291693
120	0xbeb20b83	-0.34774408
121	0x3e01abac	0.12663144
122	0x3e13eaab	0.14444987
123	0x3e859a6d	0.2609438
124	0xbe94b286	-0.29042453
125	0xbdab7db5	-0.08373586
126	0x3e0dae30	0.13835979
127	0x3e4679eb	0.19382446
128	0x3cdc84ae	0.026918735
129	0xbdabccdf	-0.083886854
130	0x3dec46a1	0.11536909
131	0x3bc92369	0.0061382544
132	0xbe8cca90	-0.27498293
133	0x3e4a000e	0.19726583
134	0x3dc8fdea	0.09814055
135	0xbe0fb970	-0.14035583
136	0xbe2c0fbb	-0.16802876
137	0x3c6c579d	0.0144251855
138	0xbd9f0247	-0.07764106
139	0x3d79209a	0.060822107
140	0x3cf94d42	0.030432347
141	0x3cd77839	0.026302444
142	0xbdf92ca5	-0.121667184
143	0x3dce9832	0.10087623
144	0x3e1eb935	0.15500338
145	0x3ef39b9f	0.47579667
146	0x3cfdaea8	0.030967072
147	0x3e0a4e01	0.13506319
148	0xbe91eb20	-0.284997
149	0x3e24aae0	0.16080809
150	0x3db06754	0.08613458
151	0x3e8c5637	0.27409527
152	0xbe568b71	-0.2095163
153	0x3de4eb5b	0.11177703
154	0x3e1f2344	0.15540797
155	0x3d890861	0.06691051
156	0x3e9c7188	0.30555367
157	0x3e0768e7	0.13223611
158	0xbe8b9f74	-0.2727009
159	0xbeff3119	-0.49842146
160	0x3e214e61	0.15752555
161	0x3ec311bc	0.38099468
162	0xbe963add	-0.29341784
163	0xbe9f8021	-0.31152442
164	0xbd93b9eb	-0.072131954
165	0x3e588b65	0.21146925
166	0xbe81edea	-0.25376827
167	0xbe82356c	-0.25431383
168	0xbe520a23	-0.2051168
169	0xbd76cb39	-0.060252402
170	0x3f07cad5	0.5304387
171	0xbd8b9e36	-0.06817286
172	0xbd926db3	-0.0714983
173	0xbd7adaea	-0.06124393
174	0xbe32b77b	-0.17452805
175	0x3e713391	0.23554827
176	0x3d008b6b	0.03138296
177	0x3d706041	0.058685545
178	0x3e72adec	0.23699158
179	0x3d965959	0.073412605
180	0x3da0c338	0.07849735
181	0x3d0134d1	0.03154451
182	0xbe7ab739	-0.24483956
183	0x3dc5393b	0.096300565
184	0x3d891bb3	0.06694736
185	0xbe965ef9	-0.29369333
186	0xbd1615ad	-0.036641765
187	0x3d1ae3ea	0.037815012
188	0xbd69a7c3	-0.057044756
189	0x3d918c35	0.071068205
190	0xbddb7f43	-0.107176326
191	0x3de38f0b	0.11111268
192	0xbda7b0dd	-0.08188031
193	0x3e30c4fe	0.17262647
194	0xbd61ba95	-0.05510958
195	0x3e5d62ee	0.2161977
196	0xbe5bf6cd	-0.21480866
197	0x3de7db28	0.113210976
198	0xbe953644	-0.29142964
199	0xbee65e6f	-0.44993922
200	0x3cb2297a	0.021748293
201	0x3d8ad59d	0.06779025
202	0x3dee9254	0.116490036
203	0x3dafd6d0	0.08585894
204	0x3d144b1a	0.036204435
205	0xbe717cfd	-0.23582835
206	0x3e8e711a	0.27820665
207	0xbd99ee07	-0.07516103
208	0x3ec3c44c	0.382357
209	0xbe2b3ec3	-0.1672316
210	0xbdbe12c4	-0.09280923
211	0xbddb3c27	-0.107048325
212	0x3e1b7c44	0.15184122
213	0x3e761954	0.240331
214	0xbe6796bd	-0.22616096
215	0x3e8d0e7c	0.27550113
216	0xbe4a596f	-0.19760679
217	0xbef0e851	-0.47052243
218	0x3e916b50	0.28402185
219	0xbe868fa0	-0.26281452
220	0xbe633189	-0.22186865
221	0xbd43b387	-0.047778632
222	0x3e7c4bed	0.24638338
223	0xbb0ef041	-0.0021810683
224	0x3da272d8	0.07932061
225	0x3da3f26d	0.080052234
226	0x3de52940	0.111895084
227	0xbe145b25	-0.14487894
228	0xbd701892	-0.058617182
229	0x3d6b3a9e	0.05742895
230	0x3da16ee3	0.07882478
231	0x3dd122d2	0.102117196
232	0x3e275a9a	0.16343156
233	0xbe402392	-0.18763569
234	0x3e32c83e	0.17459199
235	0x3e04981e	0.12948653
236	0xbed7cc29	-0.4214795
237	0xbeaea4af	-0.3411002
238	0x3d91e327	0.07123404
239	0x3d6d5e48	0.05795124
240	0x3a37abb6	0.0007006483
241	0xbe9e3075	-0.30896345
242	0x3e34a7dc	0.17642158
243	0xbd590ddb	-0.05299173
244	0x3ce5d2fe	0.02805471
245	0xbe6f060c	-0.2334215
246	0xbc4976b5	-0.012296368
247	0x3e4c9bf0	0.1998136
248	0xbe6119ba	-0.2198247
249	0x3dd8ab91	0.10579599
250	0x3ea01241	0.31263927
251	0xbde2182f	-0.11039769
252	0xbe79d949	-0.24399294
253	0x3d83a0cb	0.06427153
254	0x3e8ffbe9	0.2812188
255	0x3bb61145	0.005556258

layer1.0.bias f4 [256]
0	0x3cc1ec38	0.023672208
1	0xbdb59ac0	-0.08867407
2	0x3d8e071c	0.0693495
3	0x3d574538	0.052556247
4	0xbd883f5b	-0.06652709
5	0xb9a2f3a4	-0.00031080574
6	0xbdaf7f13	-0.08569159
7	0xbd0a7454	-0.033802345
8	0xbc4daa12	-0.012552755
9	0xbd1281ef	-0.035768446
10	0x3a34a81a	0.0006891504
11	0x3d596820	0.053077817
12	0xbe0509b8	-0.12991989
13	0x3d6a4d24	0.057202473
14	0xbd40242f	-0.046909507
15	0xbd452fd5	-0.04814132
16	0x3c075e16	0.008262178
17	0xbd6eb82a	-0.0582811
18	0xbdae2f2d	-0.08505092
19	0xbd3f10f0	-0.046647012
20	0x3cfff96a	0.03124686
21	0xbcfc67b8	-0.030811176
22	0x3c17c07e	0.009262202
23	0xbbe45033	-0.0069675683
24	0xbd8905b0	-0.06690538
25	0xba402468	-0.00073296437
26	0x3c8a8e4a	0.016913552
27	0xbd8acdb0	-0.06777513
28	0x3a2136b8	0.00061498163
29	0xbc16de15	-0.009208222
30	0x3cf16899	0.029468821
31	0xbd3c57b8	-0.045982093
32	0xbd2f3414	-0.042774275
33	0xbd0baa2e	-0.034097843
34	0xbdac2daf	-0.08407151
35	0xbbea8fef	-0.0071582715
36	0xbd08b33c	-0.033374056
37	0x3cc110be	0.023567554
38	0xbbfebd57	-0.007774036
39	0x3c5ded0e	0.013545288
40	0xbc36a01a	-0.01114657
41	0x3c1e7386	0.009671098
42	0xbdc05358	-0.093908966
43	0xbd1874be	-0.03722071
44	0xbd7f4529	-0.062321816
45	0x3d42d8fc	0.047570214
46	0xbb9ecb86	-0.004846039
47	0x3b25bafb	0.002528845
48	0xbd85bd6e	-0.065302715
49	0xbc2cf348	-0.01055605
50	0xbd5dea1e	-0.05417835
51	0xbcf1ffd0	-0.029540926
52	0xbdf4d32b	-0.119543396
53	0xbd5c4064	-0.053772345
54	0xbcb70897	-0.022342963
55	0xbd9f9f55	-0.07794062
56	0xbd03a73b	-0.032141905
57	0xbd637ce3	-0.055539023
58	0xbc255812	-0.010091798
59	0x3c1a5488	0.009419568
60	0xbdc0e03c	-0.09417769
61	0xbd72753a	-0.059193827
62	0x3c3eeaed	0.01165269
63	0xbca2554d	-0.019816065
64	0x3d3a433d	0.04547428
65	0x3ce54e6a	0.027991492
66	0xbd89a51d	-0.06720946
67	0xbd7abe26	-0.061216496
68	0xbc6bfed6	-0.014404019
69	0xbbd3abf7	-0.006459709
70	0xbcc347a7	-0.023837877
71	0x3aae2b6a	0.0013288085
72	0x3d3798b9	0.044823382
73	0xbdb45d55	-0.08806864
74	0x3c91cbdb	0.017797401
75	0x3cd1abef	0.02559468
76	0x3d17d066	0.03706398
77	0xbae27110	-0.0017276127
78	0xbd4a65fa	-0.04941366
79	0x3c2680ad	0.010162515
80	0x3cf54422	0.029939715
81	0x3c396d21	0.011317522
82	0x3c917471	0.017755719
83	0xbd7f9de5	-0.06240644
84	0xbb8ca8b0	-0.00429257
85	0xbd2947e7	-0.041328337
86	0x3cee6d50	0.029104859
87	0xbcc7f679	-0.02440952
88	0x3c2ef759	0.010679089
89	0xbd0bc9a0	-0.03412783
90	0x3d10695b	0.035256725
91	0x3d95fc8d	0.07323561
92	0xbcd91d0b	-0.026503107
93	0x3d4c56d3	0.04988749
94	0x3d022833	0.03177662
95	0xbb407d74	-0.002937165
96	0x3d0015e5	0.03127088
97	0x3c7011c3	0.014652672
98	0x3bc00221	0.005859629
99	0x3c158781	0.009126545
100	0xbca69c67	-0.02033825
101	0xbc25383e	-0.01008421
102	0xbd4e39cd	-0.050348092
103	0xbc81b7b3	-0.015834665
104	0x3baf86d2	0.005356648
105	0xbd4a19ce	-0.049341016
106	0x3d5f90fe	0.054581635
107	0xbd0fc376	-0.035098515
108	0xbd33faa9	-0.04394022
109	0x3b9dca5b	0.0048153824
110	0x3c6cfaa3	0.014464053
111	0x3c855406	0.016275417
112	0xbd8bcd25	-0.068262376
113	0x3d07bab9	0.033137057
114	0xbcb4a966	-0.022053432
115	0x3d2fdd65	0.042935748
116	0xbd1a0b87	-0.03760865
117	0xbdb5f280	-0.08884144
118	0xbc44d3ef	-0.0120134195
119	0x3d067a01	0.032831196
120	0xbd088530	-0.033330142
121	0x3d0ff996	0.035150133
122	0x3902bcb2	0.0001246806
123	0xbcb8cd69	-0.022558885
124	0x3c5d8bac	0.01352207
125	0x3da60204	0.08105853
126	0xbcc4f99e	-0.024044808
127	0x3c9d56a9	0.019206362
128	0x3b9d2616	0.0047958
129	0x3c1b4391	0.009476558
130	0xbb3b34ba	-0.0028565363
131	0xbc5488a4	-0.012972031
132	0xbc4e029c	-0.012573864
133	0x3c0ffc47	0.008788175
134	0xbdb8c7c8	-0.0902248
135	0xbd30a64c	-0.043127343
136	0xbdadd9c9	-0.08488805
137	0x3c740875	0.014894594
138	0xbc8b6a57	-0.01701848
139	0xbcd46b49	-0.025930064
140	0xbe0fde1a	-0.14049569
141	0x3bfb3ab8	0.007666912
142	0xbd16c457	-0.036808338
143	0xbd8bcb9f	-0.06825947
144	0xbbae8234	-0.00532558
145	0xbc631eef	-0.013862356
146	0xbd435259	-0.047685955
147	0x3d278ebe	0.040907614
148	0xbaca5019	-0.0015435248
149	0xbcc6ed0e	-0.024282958
150	0xbd638851	-0.055549923
151	0x3dc4a22b	0.096012436
152	0xbcaac002	-0.02084351
153	0xbcf2d869	-0.029644208
154	0x3ba2db43	0.0049699857
155	0x3c8819ad	0.016613806
156	0x3ccd2500	0.025042057
157	0x3d505058	0.05085787
158	0x3c5faf01	0.013652564
159	0xbd2fc315	-0.042910654
160	0xbcb536bb	-0.022120824
161	0xbc674e89	-0.014117845
162	0xbd1dcd03	-0.038525593
163	0x3dbc7059	0.09201116
164	0xbd3eb4cf	-0.04655915
165	0xbd13e139	-0.03610346
166	0xbda51787	-0.08061128
167	0xbc4d68ef	-0.012537225
168	0x3cb9355e	0.022608455
169	0x3c130c61	0.008975119
170	0xbd1f548b	-0.038898986
171	0xbd8d1629	-0.06888992
172	0xbc662ad7	-0.0140483
173	0xbcb7f936	-0.0224577
174	0xbc805481	-0.015665295
175	0x3bd372d5	0.006452898
176	0xba173488	-0.00057680206
177	0x3c550a58	0.013002954
178	0x3bc87e5c	0.006118579
179	0x3de402ca	0.111333445
180	0xbc3122b5	-0.010811497
181	0x3cd16bf9	0.02556418
182	0xbba58f54	-0.0050524864
183	0xbc9dc5c1	-0.019259335
184	0xbbc633c6	-0.0060486523
185	0x3c2b1930	0.010443017
186	0x3c9d976a	0.019237239
187	0x3d16cfe1	0.036819343
188	0x3c7ed9c9	0.015554854
189	0x3c344690	0.011003152
190	0xbae253a7	-0.0017267362
191	0x3ca3c785	0.0199926
192	0x3d409eec	0.04702656
193	0xbcb3c677	-0.021945221
194	0x3cd9a2f0	0.026566952
195	0xbd112fb2	-0.035445876
196	0x3d273740	0.040824175
197	0x3d0f8bc5	0.035045404
198	0x3d502186	0.05081322
199	0xbd8c26e3	-0.068433546
200	0xbb6cfe68	-0.003616238
201	0x3d4064ca	0.04697112
202	0x3d124178	0.035706967
203	0x3cce6739	0.025195705
204	0x3b159872	0.002282646
205	0xbc85d326	-0.016336035
206	0x3bc8221b	0.0061075813
207	0xbd84a920	-0.064775705
208	0x3d4861cf	0.048921403
209	0x3ca23277	0.019799454
210	0xbde2806e	-0.11059652
211	0x3c2a6a32	0.0104012955
212	0xba52a335	-0.0008035184
213	0xbca4d082	-0.020118956
214	0xbd846a69	-0.064656086
215	0xbdd04721	-0.10169817
216	0xbd32d232	-0.04365749
217	0x3d39ddf3	0.045377683
218	0x3cec3e2d	0.028838241
219	0x3d9617b3	0.07328739
220	0x3d07cefd	0.033156384
221	0xbc8d0144	-0.017212518
222	0xbd29f6f5	-0.041495282
223	0x3c10d688	0.008840211
224	0x3c866f54	0.016410507
225	0x3d688b33	0.056773376
226	0x3b387f09	0.002815189
227	0xbd0cbd42	-0.034360178
228	0x3c434e1c	0.011920478
229	0xbdaa1f11	-0.08306707
230	0x3d184d73	0.037183236
231	0x3cabefda	0.020988394
232	0xbd17ba8c	-0.03704314
233	0xbda3a806	-0.07991032
234	0x3ba39c05	0.004992964
235	0x3c8b52a5	0.017007181
236	0xbd1ba52f	-0.03799933
237	0xbd1c74e0	-0.0381974
238	0x3dbeca60	0.09315944
239	0x3c4cfec9	0.012511917
240	0xba5858f4	-0.0008253001
241	0x3c2c8d4a	0.010531733
242	0x3b560a15	0.0032659818
243	0xbd1373a5	-0.03599896
244	0x3ba2d916	0.0049697263
245	0xbc08d33a	-0.008351142
246	0xbccaece3	-0.02477116
247	0xbd0fac5a	-0.035076477
248	0x3d0898ac	0.033348724
249	0xbdaab5d1	-0.0833546
250	0xbc9a4102	-0.018829826
251	0xbcb05586	-0.021525156
252	0x3c17fc58	0.009276472
253	0xbbe79e81	-0.0070684557
254	0x3d2de5cc	0.04245548
255	0x3d33b926	0.043877743

layer1.2.weight f4 [256]
0	0x3f716cac	0.94306445
1	0x3f75ef97	0.9606871
2	0x3f7bf38e	0.9841851
3	0x3f6e3d34	0.9306214
4	0x3f7737de	0.9656962
5	0x3f7c382c	0.9852321
6	0x3f82721f	1.0191077
7	0x3f712b93	0.94207114
8	0x3f79132b	0.97294873
9	0x3f722cbe	0.9459952
10	0x3f6f8ffc	0.9357908
11	0x3f703a3f	0.93838876
12	0x3f84864f	1.0353488
13	0x3f803309	1.0015575
14	0x3f71416c	0.9424045
15	0x3f7c1b07	0.9847874
16	0x3f6fd36e	0.9368199
17	0x3f8094b1	1.0045377
18	0x3f803551	1.0016271
19	0x3f7223e4	0.94586015
20	0x3f83148f	1.0240649
21	0x3f7b1cea	0.98090994
22	0x3f7fb080	0.9987869
23	0x3f7d7f78	0.99022627
24	0x3f5ed4be	0.8704337
25	0x3f7a7bad	0.97844964
26	0x3f805d91	1.0028554
27	0x3f74fb03	0.95695513
28	0x3f7d2a9d	0.9889315
29	0x3f7ad528	0.979815
30	0x3f6f1e9b	0.93406075
31	0x3f85ce52	1.0453589
32	0x3f7ae594	0.9800656
33	0x3f722e40	0.9460182
34	0x3f763f4f	0.9619035
35	0x3f7dd0e0	0.9914684
36	0x3f78e6af	0.97226995
37	0x3f7cad61	0.98702055
38	0x3f7e1c5e	0.99262035
39	0x3f7e715d	0.9939173
40	0x3f81ceae	1.0141199
41	0x3f73e1dd	0.95266515
42	0x3f789f1a	0.9711777
43	0x3f7bcea4	0.98362184
44	0x3f770219	0.96487576
45	0x3f757560	0.95882225
46	0x3f715c77	0.94281715
47	0x3f75cfb5	0.9602006
48	0x3f8000b3	1.0000213
49	0x3f75800d	0.95898515
50	0x3f7c7af4	0.9862511
51	0x3f7ae70a	0.9800879
52	0x3f6670d9	0.9001594
53	0x3f796273	0.97415847
54	0x3f68b867	0.90906376
55	0x3f75488b	0.95813817
56	0x3f749c4a	0.9555098
57	0x3f6a9545	0.9163402
58	0x3f764885	0.96204406
59	0x3f7f8ad3	0.99821204
60	0x3f8148fe	1.01004
61	0x3f7e6264	0.9936888
62	0x3f7d4ef9	0.9894863
63	0x3f81561c	1.0104403
64	0x3f7b4b54	0.98161817
65	0x3f634003	0.8876955
66	0x3f7de43f	0.991764
67	0x3f605d4f	0.8764238
68	0x3f6963ee	0.91168106
69	0x3f796d6d	0.97432595
70	0x3f6dca21	0.9288655
71	0x3f81c48f	1.013811
72	0x3f6d64f2	0.92732155
73	0x3f7b7d08	0.9823766
74	0x3f6c36df	0.92271227
75	0x3f7d4a7f	0.98941797
76	0x3f72236f	0.9458532
77	0x3f81bfae	1.0136621
78	0x3f79ba42	0.9754983
79	0x3f802f9d	1.001453
80	0x3f711d11	0.94184977
81	0x3f7ed74e	0.9954728
82	0x3f806241	1.0029985
83	0x3f77f4ce	0.9685792
84	0x3f7fab94	0.9987118
85	0x3f70d39f	0.9407291
86	0x3f77e72e	0.9683713
87	0x3f7cbd5f	0.9872646
88	0x3f698d6b	0.9123141
89	0x3f7e7b93	0.9940731
90	0x3f6eeec9	0.9333311
91	0x3f705e57	0.9389395
92	0x3f7240c1	0.94630057
93	0x3f80a49f	1.0050238
94	0x3f77bb04	0.9676974
95	0x3f79f704	0.9764254
96	0x3f7b51ff	0.9817199
97	0x3f72f6c1	0.94907767
98	0x3f7b702b	0.9821803
99	0x3f7d6b5a	0.9899193
100	0x3f7eade6	0.994841
101	0x3f75184e	0.9574021
102	0x3f78a3e7	0.97125095
103	0x3f76f38f	0.9646539
104	0x3f7cb56e	0.9871434
105	0x3f7b2877	0.9810862
106	0x3f769a82	0.9632951
107	0x3f7baa1c	0.9830644
108	0x3f737768	0.95104074
109	0x3f7fcf82	0.99926007
110	0x3f7faaca	0.9986998
111	0x3f7ba10d	0.9829262
112	0x3f753fb3	0.9580032
113	0x3f7f856d	0.99812967
114	0x3f8407b5	1.0314852
115	0x3f767b0f	0.9628152
116	0x3f7f3b8e	0.9970025
117	0x3f77bc51	0.96771723
118	0x3f6c406a	0.9228579
119	0x3f75303b	0.9577672
120	0x3f76a8c8	0.9635129
121	0x3f738c4e	0.9513596
122	0x3f7b21cd	0.9809845
123	0x3f7c80ec	0.9863422
124	0x3f79b7bd	0.9754599
125	0x3f81e974	1.0149369
126	0x3f78bf39	0.9716678
127	0x3f79a09a	0.97510684
128	0x3f71b61b	0.94418496
129	0x3f803259	1.0015365
130	0x3f79f092	0.97632706
131	0x3f81ef23	1.0151104
132	0x3f7e9f04	0.9946139
133	0x3f7c5ee3	0.98582286
134	0x3f828fc8	1.0200129
135	0x3f729950	0.94765186
136	0x3f5d15c4	0.86361337
137	0x3f76eb35	0.9645265
138	0x3f7c3100	0.9851227
139	0x3f7fa96c	0.9986789
140	0x3f76c962	0.96401036
141	0x3f784bd7	0.9699072
142	0x3f6c0827	0.9219994
143	0x3f747e11	0.9550486
144	0x3f75bb16	0.95988595
145	0x3f7bc76b	0.9835116
146	0x3f67a1f3	0.9048149
147	0x3f7cc6d0	0.98740864
148	0x3f7ae67b	0.98007935
149	0x3f7a2cbf	0.9772453
150	0x3f7810dc	0.96900725
151	0x3f83e8bb	1.0305399
152	0x3f80f023	1.0073284
153	0x3f746285	0.9546283
154	0x3f785da9	0.97017914
155	0x3f753e60	0.957983
156	0x3f777834	0.9666779
157	0x3f6fd9a9	0.936915
158	0x3f747922	0.95497334
159	0x3f786f98	0.9704528
160	0x3f709a8d	0.93985826
161	0x3f7f875b	0.9981591
162	0x3f7dbbc5	0.9911464
163	0x3f74f516	0.9568647
164	0x3f70cad5	0.940595
165	0x3f7e2767	0.99278873
166	0x3f7c7ac5	0.9862483
167	0x3f731979	0.94960743
168	0x3f6ffaa0	0.937418
169	0x3f71d92a	0.9447199
170	0x3f7f5664	0.99741197
171	0x3f7b1aa2	0.98087513
172	0x3f73c9ca	0.9522978
173	0x3f72869d	0.94736654
174	0x3f80da90	1.00667
175	0x3f8462a8	1.0342607
176	0x3f78946d	0.9710148
177	0x3f77e5fb	0.968353
178	0x3f73cfeb	0.9523913
179	0x3f754947	0.9581494
180	0x3f6394e6	0.88899076
181	0x3f7c4a14	0.98550534
182	0x3f6ac046	0.91699636
183	0x3f82d7fe	1.0222166
184	0x3f782575	0.96932155
185	0x3f756826	0.9586204
186	0x3f76cb32	0.964038
187	0x3f7b1537	0.98079246
188	0x3f6867e3	0.9078352
189	0x3f779170	0.96706295
190	0x3f7aaf11	0.9792338
191	0x3f6ae358	0.9175315
192	0x3f68f10d	0.90992814
193	0x3f7a473b	0.9776494
194	0x3f777901	0.9666901
195	0x3f743f6f	0.9540929
196	0x3f7b0c6a	0.9806582
197	0x3f75c091	0.9599696
198	0x3f81e4c0	1.0147934
199	0x3f7f3252	0.9968616
200	0x3f7ec742	0.99522793
201	0x3f7baa1f	0.9830646
202	0x3f7d148e	0.9885949
203	0x3f750b05	0.9571994
204	0x3f701a9b	0.93790597
205	0x3f771eb5	0.9653123
206	0x3f7c58e9	0.98573166
207	0x3f709b4c	0.93986964
208	0x3f6c086a	0.9220034
209	0x3f835512	1.0260336
210	0x3f795f41	0.9741097
211	0x3f6e3965	0.9305633
212	0x3f7e177a	0.9925457
213	0x3f746111	0.9546061
214	0x3f7e0681	0.99228674
215	0x3f77bd7b	0.967735
216	0x3f6f50c8	0.9348264
217	0x3f612068	0.87940073
218	0x3f800cf4	1.0003953
219	0x3f798cb0	0.974803
220	0x3f6e0bf2	0.9298698
221	0x3f77d379	0.96807057
222	0x3f75edfe	0.9606627
223	0x3f7087f8	0.9395747
224	0x3f79198a	0.97304595
225	0x3f74ebc4	0.9567225
226	0x3f7d0b39	0.9884525
227	0x3f75be7d	0.9599379
228	0x3f72abb8	0.9479327
229	0x3f7955a1	0.97396284
230	0x3f8192b6	1.0122898
231	0x3f6cd425	0.92511207
232	0x3f84b574	1.0367875
233	0x3f7e9754	0.9944966
234	0x3f8193a9	1.0123187
235	0x3f6c1414	0.92218137
236	0x3f7b0ce0	0.9806652
237	0x3f7708f3	0.9649803
238	0x3f7c91de	0.98660076
239	0x3f75b2d3	0.9597599
240	0x3f800e01	1.0004274
241	0x3f79917a	0.97487605
242	0x3f7fae3b	0.9987523
243	0x3f706eda	0.93919146
244	0x3f6b5011	0.91919047
245	0x3f7a8c38	0.97870207
246	0x3f7df4f1	0.99201876
247	0x3f6a66c1	0.9156304
248	0x3f7251f2	0.9465629
249	0x3f726b3b	0.9469487
250	0x3f7061ee	0.9389943
251	0x3f75eea7	0.9606728
252	0x3f7cdc81	0.9877396
253	0x3f650feb	0.89477414
254	0x3f6cc93f	0.9249458
255	0x3f6c4485	0.9229205

layer1.2.bias f4 [256]
0	0xbd77c84d	-0.060493756
1	0x3c3edde4	0.011649583
2	0x3ba15eaf	0.0049246172
3	0x3cad8f26	0.021186423
4	0x3d0a680f	0.033790644
5	0x3c81f53d	0.015864009
6	0x3d052ccb	0.03251342
7	0x3cc24c18	0.023717925
8	0x3cf04d92	0.029333863
9	0x3d8eecca	0.06978758
10	0xbc6eca0e	-0.014574541
11	0xbd71c3d9	-0.059024666
12	0x393aef58	0.00017827505
13	0xbc67b7fc	-0.014142986
14	0x3cc121d7	0.023575706
15	0x3da2585a	0.07927008
16	0x3ca4c507	0.020113481
17	0xbd4fa2ad	-0.05069225
18	0xbd20cbad	-0.03925674
19	0x3cb099b5	0.021557668
20	0xbd02a3ba	-0.031894423
21	0xbdaff90e	-0.08592425
22	0xbc69507e	-0.014240382
23	0x3c776f30	0.015102193
24	0x3d3812de	0.04493987
25	0xbca0ec26	-0.019643854
26	0x3d5ec7fc	0.05438994
27	0x3ceec15d	0.029144937
28	0xbc46aa5c	-0.012125578
29	0x3d1e27af	0.038612064
30	0x3c095683	0.008382442
31	0x3d2737ca	0.04082469
32	0xbcf14155	-0.029450098
33	0xbcd4bb0e	-0.0259681
34	0x3d064f5f	0.032790538
35	0xbd94b59d	-0.072612025
36	0x3d6e7388	0.058215648
37	0xbd0d9eb6	-0.034575187
38	0x3d0f7b1d	0.03502952
39	0x3d9d2029	0.0767215
40	0xbb40816a	-0.0029374012
41	0xbc049945	-0.008093183
42	0xbdc34604	-0.09534839
43	0xbc4f7765	-0.012662743
44	0xbbad13c5	-0.0052818977
45	0xbc586222	-0.01320699
46	0x3da4130e	0.08011447
47	0xbcce7a0e	-0.025204685
48	0xbc3388dd	-0.010957924
49	0xbd1fa62f	-0.038976844
50	0xbd046413	-0.032322
51	0xbda55310	-0.080724835
52	0x3d8e1d35	0.069391645
53	0x3c752bc8	0.014964052
54	0x3dbaaeba	0.09115358
55	0x3c72b3b2	0.0148133505
56	0xbdf0c91f	-0.11757111
57	0xbd356a76	-0.044290982
58	0x3c5ab328	0.013348378
59	0xbc8d0f96	-0.017219346
60	0xbcc1a3af	-0.02363762
61	0x3d321acd	0.04348259
62	0x3d4c8b80	0.049937725
63	0x3c36aee6	0.0111500975
64	0x3d348a18	0.04407701
65	0xbd3dabcc	-0.046306416
66	0x38a120b8	7.6831726e-05
67	0xbd502ab7	-0.050821986
68	0x3d9f114e	0.077669725
69	0x3bd25fa8	0.0064200945
70	0x3d11cd92	0.035596438
71	0xbd36420c	-0.04449658
72	0xbe0874a8	-0.13325751
73	0xbc70915a	-0.014683092
74	0xbcc84f87	-0.024451984
75	0xbcdca4a8	-0.026933983
76	0x3d6c30ee	0.05766385
77	0xbc0ecd83	-0.00871599
78	0x3c4d4c82	0.012530448
79	0xbddca0ab	-0.107728325
80	0xbc5f327c	-0.013622876
81	0xbc461631	-0.012090252
82	0x3d1f0803	0.038826
83	0x3d3d3b2d	0.046199013
84	0x3de716c2	0.112836376
85	0x3c4e1c35	0.012579967
86	0xbc44a292	-0.01200165
87	0xbd8552b4	-0.06509915
88	0xbccfaddb	-0.025351455
89	0xbc75f60a	-0.015012274
90	0x3c228cdc	0.009921279
91	0xbd5d9ac0	-0.05410266
92	0x3db26da9	0.08712322
93	0x3d675e6f	0.056486543
94	0x3a76c8b9	0.0009414065
95	0xbb78d7f0	-0.0037970506
96	0xbd6785ed	-0.056524206
97	0x3ce141ee	0.027497258
98	0x3cdacb95	0.026708404
99	0x3dbddcc6	0.09270625
100	0x3ddbb268	0.10727388
101	0x3d75ea09	0.060037646
102	0x3be5fd37	0.007018711
103	0x3d5491b8	0.05189678
104	0xbd0e808f	-0.03479057
105	0x3d26fb46	0.040766977
106	0xbcd29737	-0.02570687
107	0x3dc26070	0.0949105
108	0xbc83f132	-0.016106222
109	0x3ad19dd4	0.0015992471
110	0x3b7ef530	0.0038903467
111	0xbd7cd469	-0.061726008
112	0xbd8370e9	-0.0641802
113	0xbd5e9ce7	-0.054348852
114	0xbd615e9d	-0.05502187
115	0xbd3b37a0	-0.045707345
116	0xbd2c997c	-0.04213856
117	0xbca628a7	-0.020283056
118	0x3d55b980	0.05217886
119	0xbd8e3a77	-0.06944745
120	0xbcb74b0e	-0.022374656
121	0xbaddf747	-0.0016934656
122	0x3d1fadcc	0.038984105
123	0xbc123cbb	-0.008925612
124	0xbdbf13ec	-0.09329972
125	0x3d97e3a4	0.07416466
126	0xbd0b9531	-0.034077827
127	0xbbe52b0e	-0.006993658
128	0x3a7d015f	0.00096513884
129	0xbdaad865	-0.08342055
130	0x3d3e6fb9	0.046493266
131	0xbd8d055b	-0.06885787
132	0x3b2de135	0.002653194
133	0x3d0a264a	0.03372792
134	0x3c94de12	0.018172298
135	0xbc81f1a9	-0.015862303
136	0xbd2181d0	-0.03943044
137	0x3d895057	0.06704777
138	0x3c29cd28	0.0103638545
139	0xbd1da111	-0.038483683
140	0xbd951e42	-0.07281162
141	0x3d1da0e1	0.038483504
142	0x3dcdde40	0.100521564
143	0x3dbf9a55	0.093556084
144	0xbbe23b74	-0.00690406
145	0xbc77685a	-0.015100563
146	0x3cfeb7d6	0.03109352
147	0xbba0d906	-0.0049086837
148	0xbd8cf22e	-0.068821296
149	0xbd4ea037	-0.05044576
150	0xbd8e3a26	-0.06944685
151	0x3d41cfbe	0.04731726
152	0x3c0d1a04	0.00861216
153	0x3ce54c9b	0.02799063
154	0xbbb5f8d5	-0.0055533447
155	0xbd9dc8b4	-0.07704297
156	0xbd8887fd	-0.06666563
157	0xbd2a9f9f	-0.041656133
158	0x3d9de449	0.077095576
159	0x3c6cbe0a	0.014449606
160	0x3d0fa14b	0.03506593
161	0x3c9fc1fb	0.019501677
162	0xbcec33f1	-0.028833361
163	0x3d22b55f	0.03972375
164	0x3d18b61e	0.037283055
165	0xbd5048a6	-0.050850533
166	0xbc9e9efd	-0.01936292
167	0xbd4ea35d	-0.050448764
168	0xbd193a89	-0.03740934
169	0xbd4ff8e6	-0.050774477
170	0xbbdc5c2c	-0.006724855
171	0xbd9da854	-0.07698122
172	0xbd980240	-0.07422304
173	0xbc7ad376	-0.015309205
174	0xbc77db2e	-0.01512794
175	0x3d064150	0.03277713
176	0x3d6c3a3e	0.05767273
177	0xbc9bbc35	-0.019010643
178	0xbcf1bf0b	-0.029510042
179	0xbd7017c6	-0.058616422
180	0x3c8efd1f	0.017454682
181	0x3dd422f5	0.1035823
182	0x3beef841	0.0072927778
183	0x3cde9d47	0.027174605
184	0x3cf5908c	0.029976152
185	0x3c79f6fc	0.01525664
186	0x3d014a01	0.031564716
187	0xbd5cc64f	-0.05390006
188	0xbd63a6e8	-0.055579096
189	0xbd37d1e1	-0.04487789
190	0x3ba6a57b	0.005085645
191	0xbc1e7083	-0.00967038
192	0x3c474c3d	0.012164173
193	0xbd1084cd	-0.0352829
194	0xbd2ec866	-0.042671584
195	0xbc2502a2	-0.0100714285
196	0xbc386873	-0.011255371
197	0xbb9ef446	-0.004850897
198	0x3ba22a12	0.004948863
199	0xbcbd804d	-0.023132468
200	0x3bcb5e55	0.0062063136
201	0xbd869eec	-0.06573281
202	0xbd117ec7	-0.035521295
203	0x3de6d499	0.112710185
204	0xbdc971da	-0.098361686
205	0x3d5a7f9f	0.053344365
206	0xbc14fdbd	-0.009093699
207	0x3d407c81	0.046993736
208	0xbca76b9f	-0.02043706
209	0x3c9c6225	0.019089768
210	0xbce23dea	-0.027617414
211	0xbc0989fa	-0.008394713
212	0xbb5a0ebe	-0.0033272947
213	0xbc8dc7e4	-0.01730723
214	0x3d170104	0.036866203
215	0xbd03fd56	-0.03222402
216	0x3c0b0d46	0.008487051
217	0xbb848fd4	-0.004045466
218	0xbd9e6dc8	-0.07735783
219	0xbd722a3a	-0.0591223
220	0xbd0f7ffc	-0.035034165
221	0xbce9873a	-0.028506864
222	0x3d8dbc10	0.06920636
223	0x3d0ff327	0.035143998
224	0xbd5ee4d7	-0.054417457
225	0xbd4b2c66	-0.04960289
226	0xbc0e1285	-0.008671408
227	0x3cfaa72f	0.030597297
228	0x3c16cd51	0.009204225
229	0xbe097f27	-0.13427411
230	0x3b56965f	0.0032743437
231	0x3d871d93	0.06597438
232	0x3c9af775	0.018916825
233	0x3cb16250	0.021653324
234	0xbc1120cd	-0.008857918
235	0xbd7a4956	-0.061105095
236	0x3d3b9b8c	0.045802638
237	0xbc9dc27e	-0.01925778
238	0xbc9b1d39	-0.018934833
239	0x3d65c405	0.056095142
240	0x3c13bf89	0.0090178335
241	0xbd44fa19	-0.048090074
242	0xbd5ff7ce	-0.054679684
243	0x3dba418c	0.09094533
244	0xbd1031a0	-0.035203576
245	0xbbccb58f	-0.0062472294
246	0x3c08d465	0.00835142
247	0xbd6b5175	-0.05745073
248	0x3c402c7d	0.011729357
249	0x3d8913c5	0.06693224
250	0x3d00c441	0.031437162
251	0x3ccfe008	0.025375381
252	0xbc9eb411	-0.019372972
253	0x3d2020ee	0.039093904
254	0xbd01028f	-0.03149658
255	0xbca016c6	-0.01954211

layer1.2.running_mean f4 [256]
0	0x3f217f22	0.63084614
1	0x3f12fbc0	0.5741539
2	0x3ee2c6ea	0.44292384
3	0x3f19fd9c	0.601526
4	0x3f17feac	0.59372973
5	0x3f1cd4e1	0.6126233
6	0x3eb45df0	0.3522792
7	0x3eed7ec0	0.46385765
8	0x3f6105f6	0.8789972
9	0x3f0324af	0.5122785
10	0x3f372851	0.7154589
11	0x3f1862db	0.5952584
12	0x3ec87818	0.39154124
13	0x3f1e88c2	0.61927426
14	0x3ec3056d	0.38090077
15	0x3f55ffd5	0.83593494
16	0x3efdada0	0.49546528
17	0x3ee7b381	0.45254138
18	0x3f001bb3	0.50042266
19	0x3efca6c5	0.49345985
20	0x3ecc8608	0.39946008
21	0x3efc3271	0.49257234
22	0x3eda9ff9	0.42700174
23	0x3f0e3bf8	0.55560255
24	0x3ec55d26	0.3854763
25	0x3f09660a	0.53671324
26	0x3f07ac2d	0.52997094
27	0x3f3df132	0.7419616
28	0x3f0ce311	0.55033976
29	0x3eef4099	0.46728972
30	0x3ed3ab5f	0.41341683
31	0x3f266408	0.64996386
32	0x3f19411f	0.5986499
33	0x3f03f7e5	0.5155013
34	0x3ec7ff81	0.39062122
35	0x3ee3cd6c	0.44492662
36	0x3f218489	0.6309286
37	0x3ef3c752	0.47613007
38	0x3ee1252a	0.43973666
39	0x3f2b5fa3	0.66942805
40	0x3f7d6e34	0.9899628
41	0x3f13259a	0.5747925
42	0x3eea52e6	0.4576637
43	0x3eea86ff	0.4580612
44	0x3f23585f	0.6380672
45	0x3f0cd73e	0.55015934
46	0x3f4c2bab	0.7975413
47	0x3f431488	0.76203203
48	0x3f0b0045	0.54297286
49	0x3f085dcc	0.5326812
50	0x3f03b422	0.51446736
51	0x3f285c0a	0.6576544
52	0x3f060fe8	0.5236802
53	0x3f1f68ef	0.6226949
54	0x3efd3d46	0.4946081
55	0x3f70677b	0.939079
56	0x3eefc44d	0.46829453
57	0x3eecc45c	0.4624356
58	0x3ee1c75f	0.4409742
59	0x3f17bee5	0.59275657
60	0x3f0458c5	0.5169795
61	0x3f0a93a5	0.5413154
62	0x3f6b257f	0.9185409
63	0x3ec6ceb4	0.38829577
64	0x3f140644	0.5782206
65	0x3f633827	0.88757557
66	0x3f200a5e	0.6251582
67	0x3f042cf5	0.516311
68	0x3ece8a18	0.40339732
69	0x3edd105b	0.4317654
70	0x3ec01ff9	0.37524393
71	0x3ee1409a	0.439946
72	0x3f2e7664	0.681494
73	0x3f28adb4	0.6589005
74	0x3ee77cfd	0.45212546
75	0x3fa3ec32	1.2806456
76	0x3f1b2f28	0.6061883
77	0x3f35dddb	0.7104165
78	0x3f3623a9	0.71148163
79	0x3f02a8fe	0.5103911
80	0x3f74268d	0.95371324
81	0x3f2daa15	0.6783765
82	0x3f04770b	0.51744145
83	0x3ed196c3	0.40935335
84	0x3f15d8b0	0.58533764
85	0x3f52d1cb	0.8235137
86	0x3f16f2c8	0.58964205
87	0x3f27f534	0.65608525
88	0x3f0d728b	0.55252904
89	0x3f60d4de	0.8782481
90	0x3f1a6a87	0.603188
91	0x3f013ee9	0.5048662
92	0x3f5cf99d	0.8631838
93	0x3ef76410	0.4831853
94	0x3f388d8f	0.72091
95	0x3f36a99a	0.7135254
96	0x3f1ac26a	0.604529
97	0x3f386cc7	0.7204098
98	0x3f1d4a6f	0.614417
99	0x3f14805e	0.5800837
100	0x3ed9b787	0.42522833
101	0x3f092212	0.5356761
102	0x3eabec8c	0.33578908
103	0x3ed7fc18	0.4218452
104	0x3f26c1b0	0.65139294
105	0x3f474190	0.77834415
106	0x3f0cf593	0.55062217
107	0x3ed1a148	0.4094336
108	0x3f525fb4	0.8217728
109	0x3f18fe22	0.59762776
110	0x3f3a0c46	0.7267498
111	0x3ed795e6	0.4210655
112	0x3f2c806e	0.6738347
113	0x3f1ad851	0.6048632
114	0x3f01fd2d	0.5077694
115	0x3f4fedf1	0.81222445
116	0x3f0af451	0.5427905
117	0x3f2f1b23	0.6840078
118	0x3ecbf7d2	0.3983751
119	0x3f421790	0.75817204
120	0x3eee015a	0.46485406
121	0x3f2b581d	0.66931325
122	0x3f3abd05	0.7294467
123	0x3ed5b342	0.41738325
124	0x3f2677f6	0.65026796
125	0x3f500048	0.8125043
126	0x3f3c90af	0.7365827
127	0x3f146a94	0.57975125
128	0x3f50ba4c	0.81534266
129	0x3ef723fa	0.48269635
130	0x3ef8400a	0.48486358
131	0x3edbc254	0.42921698
132	0x3f0c278e	0.54747856
133	0x3f11b1ab	0.56911725
134	0x3ee53f3f	0.44774815
135	0x3f17a543	0.59236544
136	0x3f3387d6	0.70129144
137	0x3f0e3d48	0.5556226
138	0x3f32833b	0.6973149
139	0x3f454a09	0.77066094
140	0x3f388af8	0.7208705
141	0x3edabb02	0.427208
142	0x3f035926	0.51307905
143	0x3f02dee3	0.5112135
144	0x3ee0d426	0.43911856
145	0x3ea96c49	0.33090428
146	0x3f092ce0	0.535841
147	0x3f1f3936	0.6219667
148	0x3ebe20a8	0.3713429
149	0x3f0cb641	0.549656
150	0x3f0d94db	0.5530526
151	0x3f372202	0.71536267
152	0x3f16489a	0.5870453
153	0x3f0f4797	0.5596861
154	0x3f12fd77	0.57418007
155	0x3f5c3813	0.8602306
156	0x3f15d69a	0.5853058
157	0x3f527cde	0.8222178
158	0x3f03d6cc	0.5149963
159	0x3f4929a3	0.7857916
160	0x3eb8eb43	0.3611699
161	0x3eb7df46	0.35912532
162	0x3f17881e	0.59192073
163	0x3f28661f	0.65780824
164	0x3ecc8f7f	0.3995323
165	0x3f001d58	0.50044775
166	0x3f159740	0.58433914
167	0x3efb1d58	0.49045825
168	0x3f3765b8	0.71639585
169	0x3f0a6851	0.54065424
170	0x3f2152fe	0.6301726
171	0x3ed451c1	0.41468623
172	0x3f004386	0.5010303
173	0x3f411d4e	0.7543534
174	0x3ebd87bc	0.3701762
175	0x3f0e1eaf	0.5551557
176	0x3ed75284	0.42055142
177	0x3ec62868	0.38702703
178	0x3f2b09cb	0.6681182
179	0x3f069f47	0.5258679
180	0x3f2044db	0.62605065
181	0x3f158ac8	0.5841489
182	0x3eeb37c7	0.45940992
183	0x3f5526c9	0.83262306
184	0x3f24740d	0.6423958
185	0x3f051006	0.51977575
186	0x3ee9a030	0.45630026
187	0x3ece83db	0.40334973
188	0x3ef86bf7	0.4851987
189	0x3f26f56f	0.6521825
190	0x3eef48f2	0.4673534
191	0x3f2c591f	0.6732349
192	0x3f324d6a	0.69649374
193	0x3f205ccc	0.62641597
194	0x3f10eefc	0.5661466
195	0x3eb6ad8b	0.35679278
196	0x3f5cab5d	0.8619898
197	0x3f2f0626	0.68368757
198	0x3f0c44a4	0.5479224
199	0x3efadf0c	0.48998296
200	0x3f523141	0.82106405
201	0x3ecdf45d	0.40225497
202	0x3f3c4e4d	0.7355698
203	0x3f19cee9	0.60081345
204	0x3ed74d6a	0.4205125
205	0x3f111d4a	0.56685317
206	0x3f03b6af	0.5145063
207	0x3eb5a6eb	0.3547891
208	0x3f129a52	0.57266724
209	0x3f59842a	0.8496729
210	0x3f01def3	0.5073082
211	0x3f81d4c2	1.0143054
212	0x3ee63b4d	0.44967118
213	0x3f138009	0.5761724
214	0x3f0a3f0d	0.5400246
215	0x3f616d95	0.88057834
216	0x3ec25d14	0.37961638
217	0x3f4dbfb2	0.8037063
218	0x3f1b4c9a	0.6066376
219	0x3f4aae63	0.79172343
220	0x3f1d59dc	0.6146524
221	0x3f1595ba	0.5843159
222	0x3f137856	0.57605493
223	0x3f22fa74	0.6366341
224	0x3edbba78	0.42915702
225	0x3efe74b6	0.49698418
226	0x3efbd4e7	0.4918587
227	0x3ec0bb3c	0.37642848
228	0x3f54ef04	0.8317721
229	0x3f013848	0.50476503
230	0x3f1add5a	0.60494006
231	0x3f08c916	0.5343183
232	0x3eae9221	0.34095863
233	0x3ef7cec1	0.48399928
234	0x3ecf24a4	0.40457642
235	0x3f3dc294	0.7412503
236	0x3f0c0769	0.54698807
237	0x3ea6ed24	0.326028
238	0x3f0a796e	0.54091537
239	0x3ef4f8dd	0.47846118
240	0x3f295825	0.6615012
241	0x3ef1a935	0.47199407
242	0x3f523f54	0.8212788
243	0x3ebd1e84	0.36937344
244	0x3f2c0dce	0.67208564
245	0x3f5971d5	0.8493932
246	0x3f0bf390	0.5466852
247	0x3f442c98	0.76630545
248	0x3f11e3aa	0.5698801
249	0x3f0be7f8	0.5465083
250	0x3f15f56a	0.585776
251	0x3f163252	0.5867053
252	0x3f0b91c9	0.54519325
253	0x3f0cecd2	0.5504886
254	0x3ee8eeb2	0.4549461
255	0x3f03338d	0.51250535

layer1.2.running_var f4 [256]
0	0x3f323c6a	0.69623435
1	0x3f810384	1.0079198
2	0x3eacb8de	0.33734792
3	0x3f23472b	0.6378047
4	0x3f45dc81	0.7728959
5	0x3f423c05	0.7587283
6	0x3e9fd205	0.3121492
7	0x3f007743	0.5018198
8	0x3f908b32	1.1292479
9	0x3f3cd13b	0.7375676
10	0x3f476bd4	0.7789891
11	0x3f39c3b7	0.7256426
12	0x3eb23946	0.3480932
13	0x3f4cc53e	0.7998847
14	0x3ee25eef	0.44213054
15	0x3f9d479e	1.2287481
16	0x3ed737a3	0.42034635
17	0x3f1e4bd2	0.6183444
18	0x3f6df26f	0.9294805
19	0x3f01f8dc	0.50770354
20	0x3ea96d7f	0.3309135
21	0x3f0466fd	0.5171965
22	0x3ed1bdd0	0.40965128
23	0x3f4f6aaa	0.8102213
24	0x3ebba7f8	0.36651587
25	0x3f588972	0.84584725
26	0x3eeae5c9	0.45878437
27	0x3f9f968d	1.246782
28	0x3f10c41d	0.56549245
29	0x3ed9c86b	0.4253572
30	0x3eb69eab	0.3566793
31	0x3f2f40c3	0.68458194
32	0x3f5ad48f	0.8548059
33	0x3f34aa24	0.70572114
34	0x3ea8bed6	0.32958096
35	0x3ecc3ff7	0.3989255
36	0x3f72c133	0.9482605
37	0x3ecf9f0c	0.4055103
38	0x3ec5188f	0.384953
39	0x3f490b6f	0.7853307
40	0x3fbc3fc9	1.4706966
41	0x3f5473b5	0.82989055
42	0x3f165840	0.5872841
43	0x3efb66ea	0.49101955
44	0x3f5c3281	0.8601456
45	0x3f1ee965	0.6207488
46	0x3faf6945	1.3704001
47	0x3f932872	1.1496718
48	0x3f7be380	0.9839401
49	0x3f311528	0.69172907
50	0x3f17a37d	0.5923384
51	0x3f4ec909	0.80775505
52	0x3f368336	0.7129396
53	0x3f4df025	0.80444556
54	0x3f125521	0.57161146
55	0x4003d215	2.0596974
56	0x3ed1539e	0.40884107
57	0x3f1afc04	0.60540795
58	0x3eba08c1	0.36334804
59	0x3f24a6a7	0.6431679
60	0x3f6065b4	0.87655187
61	0x3f0d3b0b	0.5516822
62	0x3f9fcc90	1.2484303
63	0x3ea33c8f	0.3188214
64	0x3f372939	0.71547276
65	0x3fa7340c	1.3062758
66	0x3f342b62	0.70378697
67	0x3f3d48e3	0.7393934
68	0x3ec17fac	0.37792718
69	0x3ed1b9fc	0.40962207
70	0x3ed3edf3	0.41392478
71	0x3ee51b37	0.44747326
72	0x3f45261c	0.77011275
73	0x3f2d0a99	0.67594296
74	0x3ee1b5cd	0.44084015
75	0x401d6c53	2.4597366
76	0x3f270675	0.6524423
77	0x3f59649d	0.8491915
78	0x3f650118	0.89454794
79	0x3f053ad3	0.52042884
80	0x3fce6215	1.6123682
81	0x3f49c051	0.78809077
82	0x3f20731f	0.6267566
83	0x3ec292e4	0.38002694
84	0x3f5da9db	0.86587304
85	0x3fa48fe3	1.2856411
86	0x3f29495a	0.6612755
87	0x3f6867f7	0.9078364
88	0x3ef948d9	0.4868839
89	0x3faf0824	1.3674359
90	0x3f1e16b8	0.61753416
91	0x3f18df02	0.5971528
92	0x3fab9aad	1.3406578
93	0x3eefcb06	0.46834582
94	0x3f69df63	0.91356486
95	0x3f565ae4	0.8373244
96	0x3f529055	0.82251483
97	0x3f62013c	0.88283134
98	0x3f1d8a2e	0.6153897
99	0x3f551b4c	0.83244777
100	0x3ec28ddd	0.37998858
101	0x3ef21ab7	0.47286007
102	0x3e8584cc	0.26077878
103	0x3f05f609	0.52328545
104	0x3f6ec61f	0.9327106
105	0x3fb23c74	1.3924699
106	0x3f242252	0.6411487
107	0x3ed87876	0.42279404
108	0x3f9518f6	1.1648242
109	0x3f0ef064	0.55835557
110	0x3f92e496	1.1476009
111	0x3ead7fb2	0.33886486
112	0x3f4aaf07	0.7917332
113	0x3f3422ad	0.7036541
114	0x3f336c70	0.7008734
115	0x3f8b3a51	1.0877172
116	0x3f1a1d1e	0.6020068
117	0x3f2234a7	0.6336159
118	0x3ea3d3a9	0.3199742
119	0x3f57c4ed	0.8428486
120	0x3f081dcd	0.5317047
121	0x3f1b73f8	0.6072383
122	0x3f94f8bf	1.1638411
123	0x3ec05cf3	0.37570915
124	0x3f41bda4	0.75679994
125	0x3f8a98f2	1.0827925
126	0x400ddd53	2.2166336
127	0x3f1f05ba	0.62118113
128	0x3f941af2	1.1570723
129	0x3eff71ba	0.49891454
130	0x3ef48ab6	0.47762078
131	0x3ec43a3e	0.38325685
132	0x3f24924f	0.6428575
133	0x3f249621	0.6429158
134	0x3f05c3df	0.52252
135	0x3f59da03	0.85098284
136	0x3f8d9245	1.1060263
137	0x3ef4386a	0.4769929
138	0x3f41ac06	0.7565311
139	0x3f72b4ff	0.9480743
140	0x3f784db2	0.96993554
141	0x3eb8e6ee	0.36113685
142	0x3f0c31a0	0.5476322
143	0x3f3e4c06	0.7433475
144	0x3eebaba4	0.4602939
145	0x3e7a1ff8	0.24426258
146	0x3f49b726	0.7879509
147	0x3f691a9f	0.91056246
148	0x3ea5a8be	0.32355303
149	0x3f48394e	0.7821244
150	0x3f22df41	0.6362191
151	0x3f312366	0.6919464
152	0x3f0ca1f9	0.5493465
153	0x3f4627fd	0.7740477
154	0x3f1543d8	0.58306646
155	0x3f835d6c	1.0262885
156	0x3f1ac1d9	0.6045204
157	0x3f9632cf	1.1734256
158	0x3f048b45	0.5177501
159	0x3fbd7ed6	1.4804332
160	0x3ea81991	0.32832006
161	0x3ea5480e	0.32281536
162	0x3f21805c	0.63086486
163	0x3f6eb91a	0.9325119
164	0x3ec57477	0.38565418
165	0x3f10ec9a	0.56611025
166	0x3f4289f2	0.7599174
167	0x3f055e87	0.5209736
168	0x3f7ce5da	0.98788226
169	0x3f1d1903	0.6136629
170	0x3f73e8aa	0.9527689
171	0x3f112422	0.5669576
172	0x3f1566f3	0.58360213
173	0x3fb3e859	1.4055282
174	0x3ea36490	0.3191266
175	0x3f230499	0.6367889
176	0x3eb80dfc	0.3594817
177	0x3e88b2fe	0.2669906
178	0x3f693869	0.911017
179	0x3f01928e	0.5061425
180	0x3f45ccd1	0.7726565
181	0x3f3c8ec6	0.73655355
182	0x3f0634b5	0.52424175
183	0x401674f3	2.350888
184	0x3f4a0b6d	0.78923684
185	0x3f1e642b	0.61871594
186	0x3ed14159	0.4087017
187	0x3e96939b	0.2940949
188	0x3f0f383b	0.55945176
189	0x3f5ce4db	0.86286706
190	0x3eeac80b	0.45855746
191	0x3f8f89c0	1.1213913
192	0x3f36118a	0.7112051
193	0x3f2e0b24	0.6798575
194	0x3f26b920	0.6512623
195	0x3e9abbfb	0.30221543
196	0x3ff66288	1.9248819
197	0x3f57b556	0.8426107
198	0x3f62cc27	0.8859276
199	0x3f171b7f	0.5902633
200	0x3f88efc0	1.0698166
201	0x3ead48b4	0.3384453
202	0x3f7ec785	0.9952319
203	0x3f2fbce4	0.686476
204	0x3eb87ead	0.36034146
205	0x3f6d2186	0.9262928
206	0x3f112284	0.5669329
207	0x3e8fecc0	0.28110313
208	0x3f0550db	0.520765
209	0x3f91f4fb	1.1402887
210	0x3f95370d	1.1657425
211	0x3fd937a8	1.697011
212	0x3eb662cb	0.35622248
213	0x3f08fea4	0.5351355
214	0x3f1b964a	0.607762
215	0x4001b4f3	2.0266693
216	0x3eb1a96c	0.3469957
217	0x3f8251f1	1.0181257
218	0x3f130ea9	0.57444245
219	0x3f7800e6	0.9687637
220	0x3f33e2cd	0.70267946
221	0x3f4fcf41	0.8117562
222	0x3f3ebab7	0.74503654
223	0x3f5aa752	0.8541156
224	0x3f0aba92	0.54190934
225	0x3eff47f1	0.49859574
226	0x3f080576	0.5313333
227	0x3ea5a2dc	0.32350814
228	0x3f91fea6	1.1405838
229	0x3f3b9733	0.73277587
230	0x3f24732a	0.64238226
231	0x3f0a48c7	0.540173
232	0x3e890ae2	0.26766115
233	0x3f3ce7ae	0.73791015
234	0x3e8d0de1	0.2754965
235	0x3f8ea3df	1.114376
236	0x3f23074b	0.63683003
237	0x3e59bb3a	0.21262828
238	0x3efef042	0.49792677
239	0x3f2a8532	0.6660949
240	0x3f8728d6	1.0559337
241	0x3ed1a758	0.40947986
242	0x3f886fee	1.0659158
243	0x3ead2f71	0.33825257
244	0x3f18ca2c	0.5968349
245	0x3f89cd67	1.0765809
246	0x3f20081b	0.6251237
247	0x3fa3e8f8	1.2805471
248	0x3f35d8ad	0.71033746
249	0x3f2538f9	0.6454006
250	0x3f1f56ac	0.62241626
251	0x3f4729f9	0.7779842
252	0x3f2f1aae	0.68400085
253	0x3f1c29a5	0.61001045
254	0x3ed6dd3f	0.41965672
255	0x3ed5d666	0.41765136

layer2.0.weight f4 [256, 256]
0	0x3e17537e	0.14777943
1	0xbd8fedef	-0.07027804
2	0x3ca7262c	0.020403944
3	0xbc57cb90	-0.013171092
4	0xbc0db682	-0.00864947
5	0xbc9b140b	-0.018930456
6	0xbcbcd2b7	-0.023049695
7	0x3b4311da	0.002976528
8	0x3d908908	0.07057387
9	0x3dc596ce	0.09647904
10	0x3d307118	0.043076605
11	0x3bd8039c	0.006592227
12	0x3d0ef75d	0.034903873
13	0x3e0fb238	0.14032829
14	0xbde8ab46	-0.11360793
15	0x3da0e0e3	0.07855394
16	0xbd30cec3	-0.043165933
17	0x3e12a7eb	0.14321868
18	0x3dd88f1a	0.105741695
19	0x3d45a093	0.04824884
20	0xbe104cd7	-0.14091812
21	0x3d329b20	0.04360497
22	0xbd891fb8	-0.06695503
23	0x3d1b8cb8	0.037975997
24	0xbce456c8	-0.027873412
25	0x3de91d5e	0.113825545
26	0x3d349870	0.04409069
27	0x3d6c4ba5	0.057689328
28	0x3d036ab9	0.0320842
29	0xbc367de1	-0.01113841
30	0x3e0ce6ba	0.1375989
31	0x3d9434bc	0.07236621
32	0xbe50cfff	-0.20391844
33	0x3cd1e46a	0.025621612
34	0x3cefefe4	0.029289193
35	0xbbbe5918	-0.0058089606
36	0x3dbcf4f0	0.092264056
37	0x3d4c6ab8	0.049906462
38	0xbcb5b089	-0.022178905
39	0x3df7f32b	0.121069275
40	0xbdc2d2c8	-0.095128596
41	0xbdfb1b14	-0.12261024
42	0x3cc83f14	0.02444414
43	0xbdd09f12	-0.1018659
44	0xbe2a6ad8	-0.1664232
45	0x3e8508a5	0.25983158
46	0x3d7f8c33	0.062389564
47	0x3d875727	0.0660842
48	0xbd8915e5	-0.06693629
49	0x3d854c9e	0.06508754
50	0x3c9791fc	0.018502228
51	0x3e17db9a	0.14829865
52	0x3da68327	0.08130484
53	0xb978ad99	-0.00023715793
54	0x3ceca296	0.02888612
55	0xbbd71823	-0.0065641566
56	0x3dbafb72	0.09129991
57	0x3b07c797	0.002071833
58	0xbd620449	-0.055179868
59	0xbbad1b41	-0.00528279
60	0x3e22aff6	0.15887436
61	0xbba2e1bb	-0.004970757
62	0xbdb417cd	-0.08793602
63	0xba9b3bf4	-0.0011843429
64	0xbd2391a7	-0.039933827
65	0xbdd4e8ee	-0.1039599
66	0x3d0cca2f	0.034372505
67	0x3d4fab52	0.050700493
68	0xbe3b96f8	-0.18319309
69	0xbdafa5c3	-0.085765384
70	0x3daa2194	0.08307186
71	0x3d92d617	0.07169741
72	0xbd03258e	-0.032018237
73	0xbd7cc5bf	-0.061712023
74	0x3d08d81b	0.03340922
75	0x3dbc2213	0.09186187
76	0x3e3a4ba1	0.18192913
77	0xbdf13b37	-0.117788725
78	0xbd4458a9	-0.047936115
79	0x3e3b997b	0.18320267
80	0xbd943d8b	-0.07238301
81	0xbdbd5be2	-0.09246041
82	0x3ac20861	0.0014803522
83	0xbd45f93b	-0.048333388
84	0xbd6eac05	-0.05826952
85	0xbc8ca3ea	-0.017168004
86	0x3dbde523	0.0927222
87	0x3d72f1ab	0.059312504
88	0x3cc92e12	0.0245581
89	0xbd849419	-0.0647356
90	0xbd6fe9c5	-0.05857255
91	0x3ce1bf75	0.027557114
92	0xbd1d3d83	-0.03838874
93	0x3c9bc11c	0.01901298
94	0x3c3367ec	0.01095007
95	0x3db4c0d8	0.088258445
96	0xbcdf8d2e	-0.027289
97	0x3ce1d367	0.027566625
98	0xbd8a28db	-0.06746074
99	0xbbad6a48	-0.0052922107
100	0xbe04a5d2	-0.1295388
101	0xbc938ca2	-0.018011395
102	0x3ca7149c	0.02039557
103	0xbdb694ad	-0.089150764
104	0x3d7c7379	0.06163356
105	0xbd861a65	-0.06548003
106	0x3e0144b3	0.12623863
107	0xbd61ca0f	-0.05512434
108	0xbc50bc33	-0.012740183
109	0x3e130d47	0.14360534
110	0x3d3a8a7e	0.045542233
111	0xbd50bc4b	-0.05096082
112	0x3e051d62	0.1299949
113	0x3db165ba	0.08661981
114	0x3d4fac3e	0.050701372
115	0x3de7e4f1	0.11322964
116	0x3c9b7675	0.018977383
117	0x3cb306ca	0.021853823
118	0x3e19f667	0.15035401
119	0xbd160adf	-0.03663146
120	0x3dde0bb2	0.108420745
121	0xbd84ed82	-0.064906135
122	0xbcf60450	-0.030031353
123	0xbe65441a	-0.2238926
124	0x3d3b32ff	0.04570293
125	0xbd9cee21	-0.07662607
126	0x3c732b40	0.014841855
127	0x3d37b620	0.044851422
128	0xbd58b898	-0.052910417
129	0x3d24946f	0.04018062
130	0xbbad62ab	-0.005291303
131	0x3e98ff75	0.29882398
132	0xbda0db71	-0.07854355
133	0x3ca168ad	0.019703234
134	0xbd8e9ce4	-0.06963518
135	0xbbced0ac	-0.0063114967
136	0x3d95e151	0.07318366
137	0x3db1143e	0.08646439
138	0xbd1330f7	-0.03593537
139	0xbd69e914	-0.057107046
140	0x3d298dde	0.04139506
141	0xbdc33728	-0.095320046
142	0x3e2b91fa	0.16754904
143	0x3e7c7310	0.24653268
144	0xbe19c333	-0.15015869
145	0xbd2d1866	-0.042259596
146	0xbddfeee7	-0.10934239
147	0x3df5fd71	0.12011231
148	0x3dfd0b8c	0.12355718
149	0xbc7494aa	-0.014928022
150	0xbd52a8a6	-0.051430367
151	0x3e8de6fe	0.27715296
152	0xbe0cffed	-0.13769503
153	0x3cd74704	0.02627898
154	0xbd9e557f	-0.07731151
155	0x3dcb4cf0	0.09926784
156	0x3d3d780f	0.046257075
157	0xba91d5aa	-0.0011126299
158	0xbc48569f	-0.012227683
159	0xbcc2a4fe	-0.023760315
160	0x3d35bf84	0.044372097
161	0x3e219bf2	0.15782145
162	0xbc8d5de7	-0.01725669
163	0x3dc1484e	0.09437619
164	0x3e0bd344	0.1365481
165	0xbb850898	-0.0040598623
166	0xbc70d896	-0.014700076
167	0x3dd8fa0d	0.105945684
168	0x3e8d6914	0.2761923
169	0xbccec08d	-0.0252383
170	0xbe18e816	-0.14932284
171	0xbd6d4748	-0.057929307
172	0x3e137a54	0.14402133
173	0x3d9bafc8	0.07601887
174	0xbd00dd0d	-0.03146081
175	0xbde57bcb	-0.11205252
176	0x3e246ee0	0.1605792
177	0x3bf839a6	0.0075752316
178	0x3d1dd2cd	0.038531113
179	0x3d18f15e	0.03733956
180	0xbc342328	-0.01099471
181	0x3df3a079	0.11895842
182	0x3d14e9df	0.03635585
183	0x3e79a30e	0.24378607
184	0x3d4796c1	0.048727755
185	0x3de59154	0.1120936
186	0xbd638046	-0.055542253
187	0x3d33306e	0.043747358
188	0x3badc61a	0.0053031566
189	0x3d1557d6	0.03646072
190	0x3ca43b0d	0.020047689
191	0xbe2aa89a	-0.16665879
192	0xbd839bd1	-0.06426204
193	0xbd00ead5	-0.031473953
194	0x3d430813	0.047615122
195	0xbd278ce4	-0.04090585
196	0xbe28d5cf	-0.16487812
197	0x3b3a820f	0.0028458869
198	0x3e4d6b49	0.20060457
199	0xbe26021d	-0.16211744
200	0xbdf86234	-0.12128106
201	0x3dedfddf	0.11620688
202	0xbdf7d694	-0.121014744
203	0x3d1df9dd	0.038568366
204	0xbd704451	-0.0586589
205	0x3df63451	0.12021697
206	0xbdc53e50	-0.09631026
207	0xbdade899	-0.0849163
208	0xbbfce080	-0.007717192
209	0xbdca74af	-0.09885537
210	0xbdd53118	-0.104097545
211	0xbd8199a6	-0.06328134
212	0x3d997272	0.07492532
213	0xbd681acf	-0.05666619
214	0x3d10cc3e	0.03535103
215	0x3e3e187b	0.18564026
216	0x39a1c946	0.00030858273
217	0xbd71e782	-0.059058674
218	0x3da1b593	0.07895961
219	0xbb5ab588	-0.0033372361
220	0xbdf3a42a	-0.11896546
221	0xbc5922f2	-0.0132529605
222	0x3de406bd	0.11134098
223	0xbbc70aa9	-0.006074269
224	0x3d8ac027	0.067749314
225	0xbe035788	-0.1282636
226	0x3dbada74	0.09123698
227	0xbcaaa418	-0.0208302
228	0x3e76290c	0.24039096
229	0xbc2aff1b	-0.010436798
230	0xbc1a8e7e	-0.009433387
231	0x3bd1b338	0.0063995384
232	0x3c3bc1a5	0.011459743
233	0x3dac6cd3	0.08419194
234	0xbd0dda82	-0.034632213
235	0x3ca57f0f	0.020202188
236	0xbe0ddf51	-0.1385472
237	0xbdc1711e	-0.094454035
238	0x3dcc3e7c	0.099728554
239	0x3dd4130a	0.10355194
240	0x3d6fdffb	0.058563214
241	0x3cc5d9a0	0.024151623
242	0x3d0628ee	0.032753877
243	0xbd8c44ff	-0.068490975
244	0x3d99a682	0.07502462
245	0xbda3d858	-0.08000249
246	0xbd80a6a5	-0.06281785
247	0x3cdb271b	0.026752045
248	0xbd91a080	-0.07110691
249	0x3ae28b21	0.0017283895
250	0xbd7ca2ed	-0.061678816
251	0x3d32cc79	0.04365203
252	0x3b43854b	0.0029834087
253	0xbd899dc4	-0.067195445
254	0x3b03787a	0.0020060823
255	0x3e356e06	0.17717752
